models/agent2.pt (torch, 5512 bytes, 4 tensors)

net.0.weight f4 [128, 4]
00000000: 98e1 36be 00e2 b03b a094 f23d 2630 89be
00000010: a06a 013e 149a ff3e 54df 953e 8ed6 a4be
00000020: b0f6 91bd b468 c03e 7c83 e33e cc0f d23e
00000030: 7662 a03e f0e3 1abe 1c53 1c3e 00a1 9f3e
00000040: 9232 99be 005b 4c3e 70eb 1dbe e004 753e
00000050: fc4c 5f3e 009f e93c 769b c33e 0edf b43e
00000060: 7ce7 ecbe aa99 e83e 6a7d a4be 80ee 37bc
00000070: 887d e53e bc34 5b3e 0845 0a3e 18fe 0abe
00000080: c49a a33e f003 afbd b00f 56bd e8d7 6dbe
00000090: 34a3 993e 1061 f53d f8d3 f4bd 7e32 bc3e
000000a0: 8830 6a3e 420f e5be 8cb4 2abe 10d1 de3e
000000b0: e8ac c2bd 06cb af3e 6c28 e23e fe75 ba3e
000000c0: 5843 edbd 84a1 7cbe ca3c bebe 5c99 85be
000000d0: 1eb1 a43e 5c7d 4f3e a8ea 0a3e a028 dc3c
000000e0: c2ca aa3e 7446 593e 88a1 b5be e8d6 d63d
000000f0: b828 88bd ccdf a4be 40e7 b43d acb5 a7be
00000100: 24f1 1c3e 409f 95bc 1a07 e4be 0084 fa3c
00000110: 0015 113c f2e9 f5be e088 e83c e454 af3e
00000120: 4028 833e 56fe 963e e8a1 0dbe a016 e8bd
00000130: 481f a93d 06f0 b8be c84d afbe 425e bfbe
00000140: 7abc c4be d847 a23d 6011 ff3c 34ba 583e
00000150: 8e94 e8be c8a8 b6bd 486a 4cbe 4cf4 743e
00000160: 9473 aa3e d09d e3bd 10d5 7cbe ae99 943e
00000170: c8c2 54be 8e20 c23e e0c9 173e f0fc 8abd
00000180: 7a10 bb3e 3436 8e3e c495 99be a815 f3be
00000190: e42a b03e deca 983e 906a aebe 203c 4cbe
000001a0: c0f9 eb3e 005d 35bb 7077 313e b041 d33d
000001b0: 1284 fcbe 00e4 533a c4a8 833e 609a 753e
000001c0: 60e9 1f3e 7628 823e 909d 823d 5ac6 bf3e
000001d0: 802c 543d a497 013e 9816 5c3e 0424 93be
000001e0: 02e5 ffbe 7ac5 eb3e 8e63 d33e 085d b2be
000001f0: c09a d7be f262 b33e 1068 ab3e f0b8 e9bd
00000200: f6c1 fb3e 10ae cf3d 8e9d ccbe b0fa 963d
00000210: 7856 963e 8e6b 9abe f86f e9bd a0a0 b5bd
00000220: 224a ecbe 9631 efbe 80c2 febe 4071 283c
00000230: 689a 2abe 108d 783e c686 ef3e e01e 363d
00000240: 9691 ce3e c0fc 8ebc 845e fb3e 2065 2d3e
00000250: 88b4 b73d 30c5 45bd e202 d03e f04b 3c3e
00000260: d047 04bd 8886 c33e a81a 52be 08ab b4be
00000270: f01b e6be a0cf cd3e 4827 cd3e 00b4 33bc
00000280: 608f babc 0844 97bd d070 35be 808a 073d
00000290: b08b c13d 108e c43d 005a dd3d 7ecf f1be
000002a0: 72fd e53e 384c dabd f88e 693e baef f1be
000002b0: 6e4c abbe c85f acbd d071 893d 607f e63d
000002c0: f2e5 f23e 40a9 353c 70c1 4d3e d491 043e
000002d0: b073 28be e6fb 8b3e 56ae 8ebe 8ef0 91be
000002e0: 00d7 85bb 50f0 c9be d09c 4cbd 342b 9f3e
000002f0: b8e9 c53d 1c9d e53e 6060 edbc 1844 8fbd
00000300: e4b1 5c3e e8cb e3bd 94f9 66be 18a6 4b3e
00000310: 848b f5be 2052 9dbd 003e 863c c0d4 acbd
00000320: aeed 813e 7ce4 483e 48fe 3abe 8a98 b83e
00000330: 7245 8cbe ac15 8e3e e4a5 93be 2887 993e
00000340: b24d a93e 48d9 bb3e 7cbe 08be 24d2 953e
00000350: 68f6 e53d 0632 f83e c83c 8cbd 40ac 573d
00000360: 0e24 863e 4c1e 463e c0c4 ab3d 52d4 f2be
00000370: 246c 26be 027b 9b3e 7e99 ae3e bc21 53be
00000380: 22e9 a83e fed6 e7be 3a2a 973e 8cd7 b03e
00000390: 781c ddbe 2898 ddbe 6023 463e 001a 44bb
000003a0: 0490 3abe 2204 c1be 40dc f3bd 58be c83d
000003b0: c416 e4be 80eb 9b3c 80c5 023c f44c 0f3e
000003c0: 3057 663d ae29 edbe c094 03be 2038 f5bc
000003d0: 78cd 2b3e a076 79bd 7431 663e d419 793e
000003e0: 8478 373e 8226 eabe c284 c83e e016 623e
000003f0: ceb9 9abe 0485 ee3e fc0b 1e3e 5059 ed3e
-0.17859495 0.005398035 0.11844754 -0.26794547 0.1263833 0.4992224 0.29271948 -0.32194942
-0.0712713 0.37579882 0.44436252 0.41027677 0.3132512 -0.15126014 0.15266079 0.3117752
-0.29921395 0.19956589 -0.15421844 0.23927641 0.21806711 0.0285182 0.38204545 0.35326427
-0.4627036 0.45429736 -0.32126933 -0.011226296 0.44822335 0.21406835 0.13502896 -0.13573492
0.31954014 -0.08545673 -0.052261055 -0.23226893 0.30007327 0.11981404 -0.11954492 0.36757272
0.22870076 -0.44738203 -0.16670436 0.43518877 -0.095056355 0.34334582 0.44171464 0.36418146
-0.115851104 -0.24670988 -0.37155753 -0.26093566 0.3216638 0.20262665 0.13566077 0.02687484
0.33357817 0.21218282 -0.354748 0.10490209 -0.066483915 -0.32201993 0.0883317 -0.32755792
0.15326363 -0.018264413 -0.44536668 0.03058052 0.008855104 -0.4803005 0.02838558 0.34244454
0.25616646 0.29490918 -0.13831294 -0.113324404 0.082579195 -0.36120623 -0.3423903 -0.373766
-0.38425046 0.07923859 0.031136215 0.21164781 -0.45425838 -0.08918911 -0.19962418 0.23921317
0.33291304 -0.11114085 -0.24690652 0.29023498 -0.20777428 0.37915462 0.14823103 -0.06786525
0.36536008 0.2777573 -0.29997075 -0.4747746 0.34407723 0.29842275 -0.34065676 -0.19944811
0.46088982 -0.002767384 0.17330718 0.10315263 -0.49319512 0.0008082986 0.25714695 0.2398467
0.15616369 0.25421494 0.06377709 0.37456018 0.05180025 0.12655503 0.21492994 -0.28738415
-0.49979407 0.460491 0.41286892 -0.34836602 -0.42110252 0.35036427 0.3347783 -0.11412227
0.49171418 0.10140622 -0.39963955 0.073720336 0.29362845 -0.30160183 -0.113983095 -0.088685274
-0.4615031 -0.4671752 -0.49757767 0.010280907 -0.16660464 0.24272561 0.4678251 0.04446304
0.40345448 -0.017454505 0.49095547 0.16933107 0.089699805 -0.048283756 0.406272 0.18388343
-0.03229505 0.38188577 -0.20517981 -0.35286736 -0.4494319 0.40197468 0.40069032 -0.010968208
-0.022773445 -0.07386023 -0.17718816 0.03309107 0.094504714 0.09597409 0.10808182 -0.47228616
0.44919926 -0.10659069 0.22808444 -0.4725321 -0.3345675 -0.08416706 0.06711161 0.112547636
0.4744106 0.011087716 0.20093322 0.12946254 -0.16450381 0.2734062 -0.27867383 -0.2850384
-0.004084468 -0.39441156 -0.049954236 0.3108765 0.09663719 0.44846427 -0.02897662 -0.0699541
0.21552235 -0.111228764 -0.22556144 0.19887578 -0.47958004 -0.0768168 0.016386986 -0.08439016
0.25376648 0.1961841 -0.18261063 0.36053878 -0.27396733 0.2775091 -0.28837502 0.2998593
0.3306709 0.3668921 -0.13353914 0.29261887 0.11228639 0.48475665 -0.068475306 0.052654505
0.26199383 0.19347495 0.083871365 -0.47427613 -0.1625219 0.30367285 0.3410148 -0.20618337
0.32990366 -0.45281214 0.29524404 0.3453945 -0.43185782 -0.43280149 0.19349432 -0.0029922724
-0.18219 -0.37698466 -0.11907244 0.0980193 -0.4454862 0.019033194 0.007981658 0.13994199
0.056235492 -0.46320862 -0.12849712 -0.029933989 0.16777599 -0.060904145 0.22479802 0.24326259
0.17917067 -0.45732504 0.39163786 0.22079039 -0.30219883 0.46585858 0.15434259 0.46357203

net.0.bias f4 [128]
00000000: 3c52 62be 60f4 3d3d c824 f0be 62fe f53e
00000010: 4e18 a73e 5e5a f63e 582a b0be e6e9 d43e
00000020: 78cb 90be b073 68be c818 da3d 4018 58bd
00000030: 6e31 de3e 1adb cd3e 3415 f13e dc68 803e
00000040: f8db fbbd 140a 15be 148d 3cbe 025b eb3e
00000050: 2670 813e 8a31 cbbe 0c44 a2be 284e 4d3e
00000060: d626 893e 2025 debd b4f6 bbbe 68a4 393e
00000070: 585e b33d 582d a33d f61f 943e 1a74 c2be
00000080: 842a bbbe e83c b23d dc60 d73e d880 ce3e
00000090: cc59 cdbe 509c 2f3d 200c e33e 4823 da3d
000000a0: 2813 3b3e a495 b23e a885 94bd 8af9 933e
000000b0: 200d 4c3e cc30 6dbe c0c3 e23d 1a15 913e
000000c0: dcd0 cebe 90ef ec3e 7c07 dc3e 2a81 f2be
000000d0: 70a4 383e f655 b3be 147e 2f3e e21d da3e
000000e0: e8e8 93bd 6058 9a3d 1aa4 f43e 34ae c93e
000000f0: ac16 1dbe c070 0f3e 106b d9be d6ac c83e
00000100: ee9d b8be bcf4 e43e beb9 a3be c083 fbbd
00000110: b0ee c33e deb2 b7be d889 0abe e89e d7bd
00000120: 4430 03be 20cf 2c3e e610 f53e 202b b1be
00000130: 00c4 bb3c 5820 da3e 8adf 9abe a486 9dbe
00000140: e035 563e b4bc 36be 44cb f23e f838 25be
00000150: d285 fdbe c6fb ebbe a4b1 213e 56af adbe
00000160: 209a 1cbd 10f8 93be c289 d03e 8a84 c4be
00000170: 22ab c13e 5826 58be 3a97 8a3e da8f d9be
00000180: b693 f3be 7045 2fbe 74a0 763e 3c8d 9a3e
00000190: 30df 1f3d 1c7d 723e 5efa d73e 40b5 5fbd
000001a0: be13 eebe 58e7 93bd fc03 13be 1cdb 723e
000001b0: ce9c 8fbe ac8b c43e 889e 3fbe 4816 bcbe
000001c0: a230 f83e 08da 48be 5611 e5be f0d4 abbe
000001d0: 403d 44be 2470 f3be 4e50 ab3e 90a6 c3be
000001e0: 80df fdbe 4850 74be 38b5 e43e a02e 32bd
000001f0: 3653 883e b85a a4be 1c99 283e a6b2 8b3e
-0.22101682 0.046375632 -0.46903062 0.4804564 0.3263573 0.4811582 -0.34407306 0.415847
-0.28280234 -0.22700381 0.10649258 -0.0527575 0.43397087 0.40206224 0.4708649 0.2508
-0.12297815 -0.14554626 -0.18413192 0.4596787 0.25280875 -0.39686233 -0.3169254 0.20049345
0.26787442 -0.10846925 -0.36711657 0.18129122 0.08758229 0.07967633 0.28930634 -0.37979203
-0.36555874 0.08703023 0.42066085 0.40332675 -0.40107572 0.04287368 0.44345188 0.106512606
0.18269026 0.34879792 -0.072520554 0.2890132 0.19926882 -0.23163146 0.110724926 0.28336412
-0.40393722 0.46276522 0.4297446 -0.4736417 0.18031478 -0.3502652 0.17137939 0.42600924
-0.07222158 0.075363874 0.4778145 0.3939072 -0.1534068 0.14007854 -0.42464495 0.39194363
-0.3605799 0.44717968 -0.31977648 -0.12280989 0.38268042 -0.35878652 -0.13529146 -0.10528356
-0.1281138 0.16875887 0.47864455 -0.34603214 0.022920609 0.426028 -0.30248672 -0.30766785
0.20918989 -0.17845422 0.47420704 -0.16135013 -0.4951616 -0.46090525 0.15790421 -0.33922833
-0.038232923 -0.28900194 0.407301 -0.3838237 0.37825876 -0.21108377 0.27068502 -0.42492563
-0.47573632 -0.17116332 0.24084646 0.30185878 0.039031208 0.23680538 0.42183203 -0.054616213
-0.46499437 -0.0722186 -0.14356989 0.23716396 -0.2804932 0.3838781 -0.18712819 -0.3673575
0.48474604 -0.19614422 -0.4473979 -0.33560896 -0.1916399 -0.47546494 0.33459705 -0.38213015
-0.4958458 -0.2385875 0.4466951 -0.043501496 0.26625985 -0.32100463 0.16464657 0.27284735

net.2.weight f4 [2, 128]
00000000: 0839 22bd 304c 883d ab12 143c 298d 973d
00000010: 837c 0cbb 586b 53bd 8e88 32b9 0803 23bd
00000020: 6fc5 f9bc 4b79 903d c6cc a8bd e166 0abd
00000030: 8e92 99bd 0795 92bd 0c86 71bd fcc3 bcbc
00000040: 9209 85bd c95b 08bd fc98 f33b 359b b13c
00000050: a40e 7abc e6c5 813d 7fb3 d63b c12f 2c3c
00000060: 5745 8e3d 5d26 563d 1b97 b13d 9444 4abd
00000070: b147 b0bd bb28 75bd 4144 383d 3f1f 4a3b
00000080: dd7e 0c3d 2093 9bbc 73a0 90bd 4531 d4bb
00000090: 3412 383d 32d7 883c 5f77 2c3d 88a8 a93d
000000a0: 0201 bf3c 410e a4bd eb1c 23bd fe61 6b3d
000000b0: c298 8fbc 5fb4 493d 9aeb 3f3d e12b 21bd
000000c0: 0fe8 c73b a9b0 babc d261 ab3d 1674 86bd
000000d0: 7525 39bc a741 d6bc 60bb 93bd 96b4 3cbd
000000e0: 00ac 68bd b649 6f3d 54f6 613c 79a1 5dbd
000000f0: 9482 8fbd c448 4e3d 49bd ae3d 3edd a73c
00000100: 1e75 933c 334d 86bd 7f65 2c3c 22d2 2abb
00000110: 9a9b 4b3d 3084 06bd 8332 943d d59d c73c
00000120: cbc0 953d 2f82 a0bd bd6b 5c3d 968e a1bd
00000130: abc7 a3bd 3162 a83d d236 8bbc 5e99 b0bd
00000140: ccae 1abd a402 a43d e8e2 933d 45e6 babc
00000150: 0d4d 823d 5a02 1cbd 524a 9cbd 22c0 1cbb
00000160: d768 2a3d fb02 5bbd 483a 8d3c 5414 98bd
00000170: 0eb0 bc3b 5b6a 263d 1d6b 2f3b 1120 32bd
00000180: b06c e53c 9a4a 943d bcef 973d 4a5d ac3d
00000190: 9c62 ddbb 15e3 133d e13a e13c 37d4 a2bd
000001a0: b74f b2bd 8863 f7bc b121 edbc 5822 a33c
000001b0: 1d10 453d b9ff 58ba d8ca 9fbd e516 4ebd
000001c0: 75cf 2b3d 2c06 813c a181 ffbc 2d32 23bd
000001d0: c377 3e3d 0419 24bd cc31 5dbd 4920 843d
000001e0: 36e5 03bd 6f97 973b d485 9c3d 2cf4 92bd
000001f0: 7543 a53d f641 ce3b e716 72bb 8161 283d
00000200: a74a ff3c 0c6c 023d 187e 99bd cbac 30bd
00000210: d230 85bd ac42 623d 8335 9e3d 5835 633d
00000220: 18da 10ba 7591 493d 404b 1a3d 05cf 863d
00000230: 49cd 1f3d ffed a2bd 0177 b2bd 07cb 7f3d
00000240: 1faf 3d3d 9d60 75bd 147c 9c3d 75a6 8b3d
00000250: 4c01 583c e3c4 523d ac9a 8c3c e33a 573d
00000260: c5ba 383b ac8c 433d 81f6 a23c 8174 64bd
00000270: baf6 37bd 26f6 953d 09ae 703d db54 9a3d
00000280: aa42 9c3d fdee 9f3d 4ab1 90bd d471 a0bd
00000290: a0fd a83d da48 983d da7a 95ba e12e 24bd
000002a0: 24bd 543d deb1 e23c 1c95 8bbd 2cf3 f53b
000002b0: f3d6 5dbd c38f 1a3d 688e 11bb c442 b03d
000002c0: d017 543c 035a 61bc 9976 1d3d 9845 c4ba
000002d0: 5546 093d ad59 d13c 0399 b73c 3982 62bd
000002e0: 9fcc 83bd de6d 543d 7b29 aebd 957d c5bc
000002f0: 1679 38bd b94a 86bd d9fe 153d 0dd5 56bd
00000300: 9788 3e3d 3edf 103d 494b 673d a3c0 9ebd
00000310: 9a7a 6abd ce27 253d 74b5 f1bc 739a e53c
00000320: 1765 55bd 1f31 8f3a 6d22 033d 63a3 8d3d
00000330: 2031 17bd 5771 debc 9de0 823d 3010 a33d
00000340: 4025 47bd b399 583d 94c1 abbc 7924 ab3d
00000350: e08e 71bc 8443 a2bb 3219 123d b83a de3b
00000360: 857b 2f3d a558 84bc 2733 513d f52d ba3c
00000370: 4704 63bd 9d47 7d3d 1a31 e73b 30ef d13c
00000380: 226b 27bd 22fa 383d 0f66 993d 555a db3c
00000390: 8516 88bd ab96 5bbd 3b79 b4bc 31b4 b3bc
000003a0: 4b1e 4abd 2efe be3c a61a 443d 0ad1 a63d
000003b0: 7eff 25bd a1e7 403b 22af 58bd f4c2 67bd
000003c0: b128 443d 3862 593d fc5f 1d3d 4787 20bb
000003d0: a27c c93c 608f ffbc 78d1 d9bc 04f5 043d
000003e0: 87b3 0d3d 214c c5bc dd5e dbbc 5d5a 7bbd
000003f0: 13c1 8dbd e5e1 8fbd dcad 37bd 9e1a 8c3d
-0.03960517 0.066551566 0.009037654 0.07399971 -0.002143652 -0.051616043 -0.00017026273 -0.039797813
-0.030489651 0.07054385 -0.082421824 -0.03378952 -0.07498656 -0.07157331 -0.058965728 -0.023042671
-0.06495966 -0.03329066 0.0074340086 0.021680454 -0.01526228 0.06336574 0.0065521593 0.010509432
0.06946819 0.05228268 0.08671399 -0.049381807 -0.08607424 -0.059853297 0.044986967 0.0030841378
0.034300674 -0.018991053 -0.07061853 -0.0064756 0.044939235 0.016704176 0.04210603 0.08284098
0.02331591 -0.08010531 -0.0398225 0.0574665 -0.017528895 0.04924428 0.046855547 -0.039348487
0.0061006616 -0.022789316 0.08368267 -0.065651104 -0.011300434 -0.026154352 -0.07213473 -0.046070658
-0.056804657 0.058419906 0.013791639 -0.05410907 -0.07007328 0.050362363 0.08532197 0.020491239
0.018000182 -0.06557693 0.010522245 -0.002606519 0.04970894 -0.032840908 0.07236197 0.024367252
0.07312163 -0.078373305 0.053813685 -0.07888524 -0.07997068 0.082218535 -0.016993914 -0.086230025
-0.037764356 0.08008316 0.07221013 -0.02281488 0.063623525 -0.03808818 -0.07631363 -0.002391823
0.04160389 -0.05346964 0.017239705 -0.07425752 0.005758292 0.040628772 0.0026766725 -0.043487612
0.028005928 0.072407916 0.074187726 0.08416231 -0.00675614 0.036105234 0.027493896 -0.07950633
-0.08706611 -0.030198827 -0.02894673 0.019913837 0.04811107 -0.0008277852 -0.07802361 -0.050314803
0.041945893 0.015750013 -0.031189742 -0.039842773 0.046500932 -0.04006292 -0.054002568 0.064514704
-0.032201014 0.0046262066 0.07642713 -0.07175478 0.08069507 0.0062944843 -0.003693992 0.041108612
0.031163527 0.031841323 -0.074947536 -0.04313354 -0.06503452 0.055239365 0.0772505 0.055470794
-0.00055256626 0.049210984 0.03766942 0.065824546 0.039014135 -0.079555504 -0.087141044 0.06244948
0.046309587 -0.05990659 0.076408535 0.068188585 0.013183903 0.051457297 0.017163597 0.052546393
0.0028187495 0.047741577 0.019892933 -0.05577517 -0.04491303 0.0732234 0.058759723 0.07535716
0.07629903 0.07809255 -0.07065065 -0.07834211 0.082515 0.0743577 -0.001140441 -0.04008377
0.05193819 0.027672704 -0.0681555 0.007505795 -0.05416007 0.037734758 -0.0022210125 0.086064845
0.0129451305 -0.013754371 0.03844318 -0.0014974354 0.03351434 0.025555456 0.022411829 -0.05529997
-0.06435513 0.05186259 -0.085040055 -0.024107734 -0.04503735 -0.06557221 0.036619995 -0.052449275
0.04651698 0.03536915 0.056468282 -0.07751586 -0.05724583 0.040321164 -0.029505469 0.028027749
-0.05209836 0.0010924673 0.032015253 0.06915929 -0.036912084 -0.027153654 0.06390498 0.07962072
-0.04861951 0.052880954 -0.020966329 0.08356566 -0.014743537 -0.004951896 0.03566856 0.006781902
0.042842407 -0.01615555 0.051074173 0.022726992 -0.055424 0.061835874 0.007055414 0.025626749
-0.040873654 0.04516042 0.07490169 0.026776472 -0.0664492 -0.053610485 -0.022030463 -0.021936508
-0.049345296 0.023314562 0.047876976 0.0814534 -0.04052686 0.0029434937 -0.052901395 -0.056582406
0.04789037 0.053072184 0.038421616 -0.0024494694 0.024595562 -0.031196296 -0.02658914 0.032460228
0.03459504 -0.024084153 -0.026778633 -0.061365474 -0.069215916 -0.07025508 -0.04484354 0.06841014

net.2.bias f4 [2]
00000000: aa9c 9a3d 8df4 1d3d
0.075494125 0.0385633
