models/agent3.pt (torch, 5512 bytes, 4 tensors)

net.0.weight f4 [128, 4]
00000000: 50da 693e 446a 503e 6c73 973e a8a9 c2be
00000010: 84ca 83be a8d7 ef3d 16b1 b03e 14b9 c03e
00000020: baa2 9f3e f8f8 19be 5a72 fe3e 8a6e d7be
00000030: 18b2 a73d fc07 f03e b893 e33e 3c1b acbe
00000040: 2442 5d3e 888f 34be ecfe 553e a03e 303e
00000050: 0005 98bb e491 ca3e 609b 0d3e 6617 bbbe
00000060: d462 323e 18bf ef3d c896 723e 9cb4 f93e
00000070: cc4c 9dbe 3eb3 9e3e 34ee 7fbe 48ab 02be
00000080: fc1e c3be 58f8 dcbe 140a 8fbe a884 b83e
00000090: d089 ae3d dc54 70be 8cb8 943e 84c6 2cbe
000000a0: 9438 65be 1805 6fbe 20b7 e03d 004b 5c3e
000000b0: f0c4 963d 4836 b63e 84eb 03be a4b9 0ebe
000000c0: b4b3 c5be 5089 0e3e 0e05 d03e b2c9 c1be
000000d0: ac2e ba3e f042 56bd 3e4b f23e dcc8 1abe
000000e0: d240 c0be 80ac ed3c 5277 e63e b029 e8be
000000f0: 80b3 edbc c8ae 923e a0b2 ebbd b8f1 f03e
00000100: 60c5 b43c d855 6dbe b892 c5be 8879 e13d
00000110: 060a c23e 9011 abbe 7a9e c03e 9072 edbe
00000120: a0ae b83e b0b3 82be 80f8 8abe a245 8e3e
00000130: 282f c93d 90c4 ae3d c8a0 d1be a05e f63d
00000140: de82 9cbe ccb6 d4be a8aa 703e 2205 cdbe
00000150: c4e8 303e 3080 fbbe 86cc d23e b074 263d
00000160: 0a2e c1be 4ada a63e c02e 093e fe96 85be
00000170: ea26 d23e 8a8f b8be cc57 b33e 24a3 b4be
00000180: 0457 68be 8877 fc3e 0468 6a3e fed8 e03e
00000190: e0e1 c93c cc11 7fbe f6db ea3e 8295 a7be
000001a0: eebf a93e 5acf fdbe 36bb b53e 2e71 943e
000001b0: f4a4 223e 108b 693d 4063 923e 0641 aabe
000001c0: 8489 453e 1a3e b3be 560a a03e ec54 af3e
000001d0: 0044 30bd 4ac6 c7be fc39 eb3e 285b 443e
000001e0: 58e2 54be 1ac5 e03e 20b1 0b3e 403f 42bc
000001f0: a47c 2c3e 50d0 4dbd 8c84 283e c0fa 3ebc
00000200: e8d6 88bd 58c8 e03e 4034 67be 40a2 453d
00000210: 747f 29be 00d0 26b9 e050 ecbe 0c2c 413e
00000220: 3cb5 b13e cc29 28be 00fe 15be 509e 153d
00000230: e41a 53be 6887 92bd 4809 4abe 6ec4 f63e
00000240: 4c58 f23e 2671 80be 1050 8d3e 380b c4bd
00000250: 6430 2b3e f838 a4bd b8dc b83d d862 d7bd
00000260: c86f 713e 1e76 febe 50c6 0d3e da42 bc3e
00000270: 52c8 c43e 08dc 75be 20f8 db3e d00d 0e3e
00000280: 68cb 8d3d 4636 c9be 7824 a2bd a0c6 8d3c
00000290: a6ec d13e e04a 023e 1ef4 a33e f0ec 72bd
000002a0: 0028 5d3e 5033 af3e 8030 573e c8f4 15be
000002b0: a860 da3d b8c9 8bbd 4097 ea3c 2cfb dabe
000002c0: ec64 c2be a4bf 013e 800a 35bd 54d9 11be
000002d0: aeb5 f93e a860 63be d072 8c3d 90ad 4d3d
000002e0: bca7 6abe 20c3 debd 6c2c d0be 7c9e 2c3e
000002f0: 00d0 73b9 f2b0 ee3e 404a 6fbc 368c dc3e
00000300: 72e2 a03e 1645 cf3e 4009 863e 68f8 eebe
00000310: 3441 9e3e 78fd 183e f00e f8be d083 033d
00000320: 0ce6 a3be 520d b53e 7238 96be e030 9ebc
00000330: 7828 6cbe d091 8abe ac1e 5ebe f2fe f93e
00000340: d8f2 41be e6e1 963e 6eda 9b3e 4ce8 c03e
00000350: 6092 003e 1817 9a3d b8f9 983e e4df d8be
00000360: b815 a7be 1655 c3be a0f1 ac3d 1aec a7be
00000370: 1c5a 543e fc61 453e 94c1 463e f40a eabe
00000380: 8036 533e 64a6 463e 5cc9 a8be b0e9 993e
00000390: 30dd 313d fc54 073e 20d3 d1bc 9849 c13d
000003a0: 0015 8bbe a076 aebc 285c b6bd 4647 9ebe
000003b0: 0a16 f93e 78e1 b7bd ac78 9e3e b8fb 9fbe
000003c0: e40e e33e 3c5d f33e e076 cf3e 3847 c3be
000003d0: ee88 c4be 5cd3 4c3e f801 9bbe 5c96 11be
000003e0: 0027 7bbc 986e 93bd 8876 933e c0b9 8ebc
000003f0: 2eb1 a1be f8d8 f83d 0ccf 43be 0c1b 21be
0.22837186 0.20353037 0.29580247 -0.38020062 -0.25740445 0.11711055 0.34510106 0.37641203
0.31178838 -0.1503638 0.49696618 -0.42076522 0.081882656 0.46881092 0.44448638 -0.33614528
0.21607262 -0.17632878 0.20898026 0.1721139 -0.004639268 0.3956443 0.13828802 -0.3654129
0.17420512 0.1170637 0.23690331 0.48770607 -0.30722654 0.30996126 -0.24993211 -0.12760651
-0.38109577 -0.4315822 -0.27937376 0.3603871 0.085223794 -0.23469871 0.29047048 -0.16872603
-0.22384864 -0.23341787 0.10972428 0.21512985 0.073617816 0.35588288 -0.12882811 -0.13938004
-0.38613665 0.13919568 0.40628856 -0.37849194 0.36363733 -0.05230993 0.4732303 -0.15115684
-0.37549454 0.029012918 0.4501291 -0.45344305 -0.029016256 0.28648973 -0.115086794 0.47059417
0.022066772 -0.23177278 -0.385885 0.11009508 0.37898272 -0.33411837 0.37620908 -0.46376467
0.36070728 -0.25527716 -0.27142715 0.277875 0.098234475 0.08533585 -0.4094298 0.12029767
-0.30568594 -0.41545713 0.235026 -0.4004298 0.17276293 -0.49121237 0.41171664 0.040638626
-0.37730438 0.32588416 0.1339674 -0.2609176 0.41045314 -0.36047012 0.3502792 -0.35280716
-0.22689444 0.49309945 0.22891241 0.43915552 0.024643838 -0.24909133 0.45870942 -0.32731253
0.33154243 -0.4957226 0.35494393 0.289926 0.15883237 0.057017386 0.28591347 -0.33252734
0.1929074 -0.35008317 0.31257886 0.34244478 -0.0430336 -0.3901847 0.45942676 0.19175398
-0.20789468 0.43900377 0.13641787 -0.0118559 0.16844422 -0.05024749 0.16456813 -0.011656463
-0.06681615 0.4390285 -0.22578526 0.048250437 -0.16552526 -0.0001590848 -0.46155453 0.18864459
0.34708583 -0.16422194 -0.14647675 0.03652793 -0.20615727 -0.07154733 -0.19730103 0.4819674
0.4733299 -0.25086325 0.27600145 -0.09572452 0.16717678 -0.080186784 0.09026474 -0.105169
0.23577797 -0.4969949 0.13845181 0.36769754 0.38434082 -0.24009717 0.42962742 0.13872457
0.06923562 -0.3929922 -0.07917112 0.017306626 0.4100086 0.12723875 0.32022184 -0.059307992
0.2159729 0.34218836 0.21014595 -0.14644158 0.10662967 -0.06825584 0.028636575 -0.42769754
-0.37967622 0.12670761 -0.044199467 -0.1424306 0.48771423 -0.2220484 0.06857836 0.05021435
-0.22915548 -0.10877061 -0.4065889 0.16857332 -0.00023251772 0.46619374 -0.014605105 0.43075722
0.31422764 0.40482396 0.26178932 -0.46673894 0.3090912 0.1494044 -0.48448896 0.032108128
-0.3201145 0.35361725 -0.2933994 -0.019310415 -0.23062313 -0.2706437 -0.21691388 0.4882732
-0.18940294 0.29469222 0.30440086 0.37677228 0.12555838 0.07523936 0.2987802 -0.42358315
-0.32633758 -0.38150853 0.08444524 -0.3279732 0.20737499 0.1927566 0.19409782 -0.45711482
0.20626259 0.1939941 -0.32966125 0.30061102 0.04342383 0.13216013 -0.025613368 0.09437865
-0.2716446 -0.0212968 -0.08904296 -0.30913752 0.48649627 -0.089785516 0.3095144 -0.31246734
0.44347298 0.4753207 0.40520382 -0.38140273 -0.3838572 0.20002502 -0.3027494 -0.14217514
-0.015329123 -0.071988285 0.2880137 -0.017422557 -0.3158049 0.121507585 -0.19121951 -0.15732974

net.0.bias f4 [128]
00000000: e08e 8e3d 807b a1bc 9885 c6be 1eaa e7be
00000010: a6e8 b8be acea 033e 00b6 743d 1c4e 49be
00000020: 8027 673c 704e 3a3d f42f c0be 90df d3be
00000030: a86f ce3e f09e 56be 1494 243e 3cb3 edbe
00000040: 64df 2e3e 48c9 afbd 16f3 d53e 04e1 2cbe
00000050: a4e7 2f3e 6815 293e 9ca7 4f3e a059 323d
00000060: 201e 3abe de9e bf3e b666 c3be 642d 58be
00000070: 3a8c efbe 8874 e6be 004d 6e3d c0cd e33c
00000080: e4b3 2c3e 7e2f efbe 1c5d e53e 00bb 5bbe
00000090: 7468 1c3e 7cf1 90be b87e 1abe ccea e63e
000000a0: ac5c acbe 00c6 e0be e8f1 d53e 80e1 843e
000000b0: 547e 5ebe e8b5 a63e 9c4e 473e 200d fc3e
000000c0: 04dc 2dbe 2067 313e 8ca4 6ebe 7cf3 d9be
000000d0: 54ba 90be 4c84 ccbe 08b4 923e 7e1e 8bbe
000000e0: 6c10 083e 526e df3e 20c2 b0bd dab4 a3be
000000f0: 8a10 f83e eef0 a93e 5eba e73e 60a5 e83e
00000100: 0048 ae3a 4c52 eb3e 4230 b03e f8be d73d
00000110: 60b3 12be 66d9 b3be 0c65 6e3e 98c2 bd3e
00000120: c674 e43e 9e6a f03e 8467 f3be 2099 a4bc
00000130: 604e 6c3e 5e47 f8be 2030 debe 6a38 8a3e
00000140: f01b d23e 30e0 28be 7a24 c5be e0ca c6be
00000150: ced7 8f3e 206f 233e 96ed eebe 449a b7be
00000160: 4ec4 df3e dac0 b33e f643 adbe 1896 943d
00000170: a4b8 213e e475 bf3e 98fa 66be 1843 8abd
00000180: f0d6 2b3e d40b 5bbe c0c1 aabe 0021 4abd
00000190: a41e e0be 20d8 23be 4204 80be 2eb8 ccbe
000001a0: a2ef c53e 9e55 c6be d0b9 8d3d 5a33 9f3e
000001b0: 4c95 dfbe 04e8 0a3e 605c e9bc 4092 4d3c
000001c0: 20ee 83be 6006 813e 1002 6ebe fa45 8b3e
000001d0: c89f 93be 888b cabe 204d c5bd 8a7e e73e
000001e0: 9cb4 c33e 60b7 d0be 00dc 23bc ce44 e53e
000001f0: 06af f3be c082 13bd 5c6f 153e 645c d43e
0.06960845 -0.01971221 -0.387738 -0.45246977 -0.36114997 0.12882489 0.05974388 -0.19658703
0.014108539 0.04548496 -0.37536585 -0.41381502 0.40319562 -0.20959067 0.16072112 -0.46425807
0.17077404 -0.08583313 0.41787022 -0.16882712 0.17178208 0.16512072 0.20278782 0.043542504
-0.18175554 0.37425894 -0.381643 -0.21111065 -0.46786672 -0.4501078 0.0581789 0.02780807
0.16865498 -0.4671592 0.447976 -0.21458054 0.1527422 -0.28309238 -0.15087402 0.4510101
-0.33664453 -0.43901062 0.41786122 0.25953293 -0.21727878 0.32560658 0.19463581 0.49228764
-0.1697846 0.17324495 -0.23304957 -0.42568576 -0.28267157 -0.39944685 0.28652978 -0.271717
0.13287514 0.43638855 -0.086307764 -0.31973916 0.48450118 0.33191627 0.45259374 0.4543867
0.0013296604 0.45961225 0.34411818 0.10534471 -0.14326239 -0.351268 0.23280734 0.37062526
0.4462034 0.46956342 -0.47539914 -0.020092547 0.23076773 -0.4849195 -0.4339609 0.26996166
0.4103694 -0.1649177 -0.38504392 -0.38826656 0.28094333 0.1596036 -0.4666564 -0.35859883
0.43704456 0.35108072 -0.33840913 0.072551906 0.15793091 0.3739463 -0.22556531 -0.06751078
0.16781211 -0.21391231 -0.33350945 -0.049347878 -0.43773377 -0.16000414 -0.25003248 -0.39984268
0.38659388 -0.38737196 0.069202065 0.31093866 -0.43668592 0.1356507 -0.02848643 0.012547076
-0.25767612 0.25200176 -0.23242974 0.27201825 -0.2883284 -0.3955958 -0.09633851 0.4521373
0.38223732 -0.40764904 -0.010001183 0.44779056 -0.4759447 -0.036013365 0.14593261 0.41476738

net.2.weight f4 [2, 128]
00000000: 6fff 6dbd a94b 6cbd f67b 90bd b475 8abd
00000010: 8fd4 4b3d 6f0f 593d cf45 063d 5aec 673d
00000020: 2042 57bd 8ea3 fabc b3de 6d3d ac0f a0bd
00000030: 6801 1dbd 2fd8 3cbb 7f2e d6bc d726 ae3c
00000040: 827c a33d 5114 073d 9e3c 60bd c031 963d
00000050: 2199 79bc 1fc7 343c ac51 92bd 1722 90bc
00000060: 84c5 333d 5f0a c4bb 61f9 ae3d 736d b03d
00000070: 361c 85bd ff30 3abd 6d54 d4bc bf4f 9b3d
00000080: 594a 15bd 40d6 553d b751 b13d 8d0f 95bd
00000090: c698 1dbc 7831 58bd c69d 35bd c93e afbc
000000a0: aada 82bd 2566 a8bd fd14 813d 0261 04bd
000000b0: 2a45 223d 2d8a 2c3c c7a0 2fbd a642 0abd
000000c0: a0cb a53d 442c 27bc a60e a93d a959 98bd
000000d0: d359 0d3d e988 aabd 7e3c 52bd 2337 cdbc
000000e0: 0bda b0bd a286 62bd ebe4 5ebd c65a 35bd
000000f0: ba7e 333d 5eb0 8c3d 2e29 633d e49b 80bd
00000100: 2e47 1b3d 8c0f 67bd 5838 cbbc 4993 ab3d
00000110: 077c 53bc ee5a 523d b7a1 893b 4fb0 75bd
00000120: f88f 8e3d 3179 093d bcd9 4ebd 8cf8 b13d
00000130: 1a6a 6b3d 00eb bebc f585 cd3b 8ce5 9cbd
00000140: f60e 243c 830f 9fbd 5b1c a3bc c236 0dbd
00000150: e3ba d4bc 1a1c 3a3c 4e29 923c 7fc7 b0bc
00000160: 380a 2d3d 22a2 a73c 1eb5 9e3b d10a 443d
00000170: 7c9d 5dbd b8c1 9bbd bf79 303d 64ba 823c
00000180: 5f16 82bd d593 473d af92 65bd 007f ea3c
00000190: aab6 8d3d 47f2 5cbd e88e 62bd 6ace b03c
000001a0: 2532 383d 89dc 38bb fd5a d4bb 959d 923c
000001b0: be27 11bd 48b2 26bd aad0 a83d 0b68 91bc
000001c0: 0e93 8abd 5e01 9fbd 64e0 90bd 82e0 f8bc
000001d0: 5f75 ae3d 44c2 8fbd c987 683d 44f7 d7ba
000001e0: df3f 113c 2958 bfbc f397 1a3d 6811 6d3d
000001f0: 0bdd 9f3d 3b34 b63c 2de9 abbd 1cb0 4d3d
00000200: fc0d dbbc cb19 8d3d feaa 863a 90a9 373c
00000210: 59ec 29bd 0996 83bc 6219 5e3d 3bef 573d
00000220: 9a17 193d 8de2 b4bd 904e a63d ea2f ae3d
00000230: c888 0dbd 6670 a43d aaa6 4fbd 3c97 263d
00000240: c9ad adbd 0f8d af3d 18a9 bc3c d7d6 263d
00000250: fcc7 793d d97d 363d 4ee0 073d f257 4e3d
00000260: 552b 943d e83a 94bd 4680 94bd 870c be3c
00000270: 4095 38bd 3106 a13d 1569 ccbc 884a 8b3d
00000280: fe63 9b3c e925 54bc 7047 5bbc b921 583d
00000290: 72d3 163d 3cd6 86bc 38c0 533c 18a6 65bc
000002a0: 6b4e 4dbd eec3 473d c05d 58bd b011 843d
000002b0: b51e 713b 9e79 343d e68d 083d 0674 08bd
000002c0: fed9 5cbd 192d 70bc 5907 953c e2b4 80bd
000002d0: 8bbe 28bd f3a4 cf3c 736b 953c 61db 6a3d
000002e0: 2846 093d a5c2 a6bc 1289 9d3d ffa1 bd3c
000002f0: 47d1 98bd c8ff afba b198 1e3d 30ba d73b
00000300: a566 a9bd fe75 883b 60bc 823d 9d7a 663d
00000310: 952b 853d 2392 72bd 0f42 2f3c b54b e7ba
00000320: 4f26 083c 4635 a03d caff cb3c 8d60 873d
00000330: 1bea 68bd 1bc3 1abd 85b4 6e3d b8e0 473d
00000340: cbaf a83d 91e7 4e3d fca4 c43c 4966 873d
00000350: 41bd 7a3d 1c25 d1bc 749f ce3c 3322 1dbd
00000360: 011f 973c a187 9cbc ae27 25bd b337 853d
00000370: 5696 4cbb 321a 46bd ee30 16ba 4d2a e23c
00000380: 61c7 51bd bee6 45bc d671 43bd fc90 9fbc
00000390: a0d8 2f3d 3e82 c53c 77c1 893d e546 813b
000003a0: 3745 de3c 8b5a d03c b1a9 883d 88f0 8d3d
000003b0: 6a63 1e3d 76a9 88bd 9157 163d 8245 acbd
000003c0: dfc8 ffbc baa1 7f3d b929 a93d 9595 a43d
000003d0: 769a 1bbc f111 9ebd 0747 f739 2b25 0bbd
000003e0: 7f32 a23d 07c6 103c f973 163d 8dba 16bd
000003f0: 65d3 bfbc 9c07 883d 2db4 90bd 8aae a1bd
-0.05810493 -0.057689343 -0.07054894 -0.06760731 0.04976326 0.052993234 0.03278142 0.056621887
-0.052553296 -0.030595567 0.05807371 -0.07815489 -0.03833142 -0.002881538 -0.026145218 0.021258755
0.07982732 0.03297836 -0.05474531 0.07333708 -0.015234263 0.011033802 -0.07144484 -0.01759438
0.043889537 -0.0059826816 0.08543659 0.08614626 -0.064995214 -0.045456883 -0.025919164 0.0758357
-0.036447857 0.052206278 0.08658164 -0.07278357 -0.009618944 -0.052781552 -0.044339918 -0.021392243
-0.06389363 -0.082226075 0.06302831 -0.032319076 0.03961674 0.010530991 -0.04287794 -0.033754967
0.08095479 -0.010203425 0.08254747 -0.07438976 0.03450949 -0.08326895 -0.05132722 -0.025050705
-0.086353384 -0.055304177 -0.054417532 -0.04427602 0.043822028 0.06869577 0.055459194 -0.06279734
0.03790968 -0.05641131 -0.02480714 0.08377702 -0.012907988 0.05135625 0.004200186 -0.059982594
0.069610536 0.033562843 -0.050500616 0.08689985 0.057474233 -0.023305416 0.0062720724 -0.0766097
0.010013333 -0.077666305 -0.019910982 -0.03447605 -0.02596802 0.011359239 0.017841961 -0.021579502
0.042246073 0.020463053 0.004843368 0.047861878 -0.054105267 -0.07605308 0.043084856 0.015958019
-0.06351923 0.048724968 -0.05604809 0.028625011 0.06919606 -0.05394199 -0.055312067 0.0215828
0.044969697 -0.002820762 -0.006480573 0.017897407 -0.03543829 -0.040697366 0.082429245 -0.017749807
-0.0676633 -0.07763933 -0.07074049 -0.030380491 0.085184805 -0.07019475 0.05677012 -0.0016476889
0.008865326 -0.023357468 0.037742566 0.057877928 0.078058325 0.022241702 -0.08394084 0.05021678
-0.026740067 0.06889685 0.0010274348 0.01120986 -0.041485164 -0.016062753 0.054223426 0.052718382
0.037376024 -0.08832274 0.08120453 0.08505233 -0.034554273 0.08029251 -0.050696053 0.040671572
-0.084804125 0.08571827 0.023029849 0.04073223 0.060981736 0.04455361 0.033172898 0.05037684
0.072348274 -0.07237798 -0.07251029 0.023199333 -0.04506421 0.07862509 -0.02495245 0.06801325
0.018968578 -0.012948492 -0.013383731 0.052766535 0.036822744 -0.016459577 0.0129242465 -0.014016651
-0.050123613 0.048770837 -0.052823782 0.06448686 0.0036791984 0.044061296 0.03333845 -0.033313774
-0.05391883 -0.01465919 0.01819198 -0.06284501 -0.04119734 0.025347209 0.018239712 0.057338122
0.03351417 -0.020356486 0.0769216 0.023148535 -0.074617915 -0.0013427669 0.038719837 0.0065834746
-0.08271531 0.0041644564 0.06383586 0.056269277 0.06502453 -0.059221398 0.010696902 -0.0017646464
0.008309915 0.07822661 0.024902243 0.066102125 -0.056863885 -0.037783723 0.058277626 0.048798293
0.08236655 0.050513808 0.024004452 0.06611306 0.061215643 -0.02553039 0.025222518 -0.038362693
0.018447401 -0.019107642 -0.040321045 0.065047644 -0.0031217537 -0.048364826 -0.0005729337 0.027608061
-0.051215533 -0.012078939 -0.047715984 -0.019478314 0.0429312 0.024109956 0.067263536 0.003945219
0.027132614 0.0254338 0.06672991 0.06930643 0.038669027 -0.06672947 0.036704604 -0.08411695
-0.031223712 0.062410094 0.08259911 0.08036343 -0.009497276 -0.07718266 0.0004716443 -0.033970993
0.079197876 0.008836276 0.036731694 -0.036799002 -0.02341623 0.066420764 -0.07065616 -0.07894619

net.2.bias f4 [2]
00000000: d9f6 acbc ea9c 7abd
-0.0211138 -0.0611848
