models/agent0.pt (torch, 5512 bytes, 4 tensors)

net.0.weight f4 [128, 4]
000000 10 7b 4e be c4 fa 7e be a0 44 e0 3c f4 e9 d9 3e
       -0.20164132 -0.24900347 0.027376473 0.42561305
000010 e8 65 55 be 34 2b be be 34 e1 71 be 38 51 ba bd
       -0.20839655 -0.37142336 -0.23621064 -0.090975225
000020 72 3e e7 be 6c 14 2a be c8 83 5f be a0 8d 38 3e
       -0.4516483 -0.16609353 -0.21827614 0.18022776
000030 d0 5c 5a bd 40 d6 70 be 66 c6 f2 be d6 d3 ba be
       -0.05331117 -0.2351923 -0.4741699 -0.36489743
000040 e0 80 c1 bd 50 c5 d4 bd a0 51 59 3d ac 32 bc be
       -0.09448409 -0.10389197 0.05305636 -0.3675741
000050 20 5a 3f 3d d4 f9 3d 3e fe ba bc be 00 9d 11 bb
       0.04671681 0.18552333 -0.36861414 -0.0022218823
000060 ec 21 3e be 18 07 c5 3d 84 bd ae be d0 0d 8d 3e
       -0.18567628 0.09620494 -0.34128964 0.275496
000070 5c a7 50 be 48 e4 b4 bd 58 7e 15 3e 38 5f ff be
       -0.20376343 -0.08832604 0.14598978 -0.49877334
000080 e8 60 79 3e b0 97 e1 3d cc e0 f1 be 5e f7 de 3e
       0.24353373 0.1101526 -0.4724182 0.435481
000090 48 25 25 be 40 9a 15 3e 90 48 be bd 5c 09 b5 be
       -0.16127503 0.14609623 -0.09291184 -0.35358703
0000a0 e4 7e 91 3e cc 1f 06 be 0e 30 c1 3e fa 42 b3 be
       0.28417122 -0.13098067 0.37731975 -0.35012037
0000b0 f4 0b 07 be 38 fe eb 3d 9c e5 16 be b0 69 6c bd
       -0.13188154 0.11523098 -0.14736027 -0.05771798
0000c0 da 4f aa be 36 0d c0 3e 68 a3 85 3d de 66 c0 be
       -0.33264047 0.3751008 0.06525308 -0.3757848
0000d0 8e 9b b8 3e 70 4a 44 bd e8 7e 92 be e4 66 9a 3e
       0.3605618 -0.04792255 -0.28612447 0.30156624
0000e0 6c 2e 5a be c8 35 d0 bd 9a 0a 8d be ea 0c 87 3e
       -0.21306771 -0.10166508 -0.2754715 0.2637704
0000f0 a6 de af be 80 70 d6 3e 70 ba 85 be 78 60 a3 be
       -0.34349555 0.41882706 -0.26118803 -0.31909537
000100 fc 2a 9a 3e c0 06 9d 3c 28 24 88 bd f0 dd 8b be
       0.3011092 0.019168258 -0.06647521 -0.27317762
000110 98 c4 0e be 7a ce d9 3e f0 a6 c2 3e 30 eb 6b 3e
       -0.13942182 0.42540342 0.38017988 0.23038936
000120 0a 0b d4 3e ca 51 98 be 80 17 77 3d 32 c8 dd be
       0.41414672 -0.297499 0.060325146 -0.433168
000130 e0 85 26 bd 88 07 b9 3d 5c 2b ce be 70 90 7a 3d
       -0.040655017 0.090346396 -0.40267456 0.061172903
000140 60 74 77 3e 48 b9 b6 3e 50 fc f2 bd 38 d9 7d 3e
       0.24165487 0.35688233 -0.11864531 0.24789894
000150 d0 41 f9 be 50 01 f7 bd 7a 09 e0 be 7a b4 c0 3e
       -0.48683023 -0.12060797 -0.4375723 0.37637693
000160 88 a1 68 3e be 76 dd be 8e e9 a9 3e 9c 85 f0 be
       0.2271787 -0.43254656 0.33186 -0.46976936
000170 4a 7d e6 be d8 99 3e be b8 ac d1 3d fc 1e ba 3e
       -0.45017463 -0.18613374 0.102380216 0.36351764
000180 24 dd 7e 3e 9a 42 e6 be cc b5 57 3e a0 94 fe bd
       0.24889046 -0.44972688 0.21065444 -0.12430692
000190 54 b7 cd 3e 6c 1e 21 be 40 47 db 3e 5e 02 ae be
       0.4017893 -0.15734261 0.42827797 -0.3398618
0001a0 40 68 4c 3e 00 6d 01 bd d8 82 c9 be 60 dc 9c bd
       0.19961643 -0.03159809 -0.39357638 -0.07659221
0001b0 42 33 9c be e8 76 89 3d b8 77 c8 3d 20 d3 98 3e
       -0.30507857 0.06712133 0.097884595 0.29848576
0001c0 74 d9 a1 3e d4 77 f4 be 70 3e a3 bd f0 90 0f be
       0.31611216 -0.47747672 -0.079708934 -0.14020133
0001d0 ac ae ba be d6 64 8d be 94 8d 98 3e 74 e1 b0 3e
       -0.3646139 -0.27615994 0.29795516 0.34547007
0001e0 ec 30 63 be 50 3a a6 3d 92 b1 df be 46 83 ad 3e
       -0.22186631 0.08116591 -0.43690163 0.33889216
0001f0 5e 69 c9 be 6c aa 04 3e c0 a2 52 be a0 89 e9 3d
       -0.393382 0.12955636 -0.20569897 0.11403203
000200 84 80 a1 3e f8 fc df be f0 ec f0 be c0 0e c7 bd
       0.31543362 -0.43747687 -0.4705577 -0.0971961
000210 68 7e 1f 3e 1c 8f f5 be 3e 2a b8 be 7c 7e 98 3e
       0.15575564 -0.47960746 -0.35969728 0.29784
000220 c8 59 f1 3d 48 45 38 3e b8 b9 48 be 22 80 af 3e
       0.117847025 0.17995179 -0.19602096 0.34277445
000230 b8 91 40 3e 34 9c 1a be 40 c0 0b 3d 94 f6 41 3e
       0.18805587 -0.1509865 0.03411889 0.18941718
000240 b0 e1 94 3e b2 c3 9d 3e 00 4a e9 bc da f1 a0 be
       0.29078436 0.30813366 -0.028477669 -0.31434518
000250 94 08 fb 3e 88 75 2a be f4 ef 18 be a0 c0 0c bd
       0.49029982 -0.16646397 -0.14935285 -0.03436339
000260 4c 8c 9b 3e 60 6e 5c bd 4e ff b8 be 80 42 d6 3b
       0.30380476 -0.0538162 -0.36132282 0.006538689
000270 1c f4 95 be 04 c6 f8 be 2e 1b ca be b8 a8 3e be
       -0.29287803 -0.48588574 -0.3947386 -0.18619049
000280 b0 0d 7c 3d 50 62 4b 3d c8 96 e4 3d 92 fb d4 be
       0.06153649 0.049654305 0.11161572 -0.41598183
000290 b0 87 72 bd f0 bd 39 be 0a e8 d1 3e de a5 ea 3e
       -0.059211433 -0.18138862 0.40997344 0.45829672
0002a0 90 56 cd 3e ec be 40 3e 7e 64 b1 3e a8 1f b2 3e
       0.40105104 0.18822831 0.34646982 0.34789777
0002b0 d0 c4 12 3d 2c 19 45 3e 20 90 82 be 00 1d c0 3b
       0.035832226 0.19247884 -0.25500584 0.005862832
0002c0 1c e3 8d be 12 40 ee be 34 b3 d6 be 30 c2 97 bd
       -0.27712333 -0.46533257 -0.41933596 -0.07410085
0002d0 70 91 b3 be ec 78 99 be 8c 58 fb 3e 6e 34 bf 3e
       -0.35071898 -0.2997507 0.49090993 0.37344688
0002e0 d8 03 38 be e6 05 96 be 7c c2 2c be f0 f9 ca 3e
       -0.17970216 -0.29301375 -0.16871065 0.39643812
0002f0 6a 27 cd be 5c db f2 be a0 1c 51 bd a0 94 e5 3d
       -0.40069133 -0.47432983 -0.05105269 0.112099886
000300 5c 24 30 be 3c f1 b1 3e 96 c4 96 be b0 b1 bf bd
       -0.1720137 0.3475436 -0.29446858 -0.09360063
000310 70 7d 3e 3e 40 c5 14 be 62 e3 97 be 04 44 96 3e
       0.18602538 -0.1452837 -0.29665667 0.29348767
000320 30 11 c5 be 9a 98 8d 3e 30 24 9b bd a4 a9 da be
       -0.38489676 0.27655488 -0.075752616 -0.4270755
000330 70 8e 61 3d a8 37 c6 bd 28 8a dc be 90 f0 fc bd
       0.05506748 -0.09678584 -0.43074155 -0.12350571
000340 9a d2 ab 3e 34 ac 1f 3e 1c a7 83 be 4a 1f 89 be
       0.33559114 0.15593034 -0.25713432 -0.26781684
000350 72 de ce 3e 68 c0 b3 be 78 3c 45 be ba b4 fe be
       0.40404087 -0.35107732 -0.19261348 -0.49747258
000360 8e 64 fe 3e a0 d1 e1 bd 60 69 b1 3d 40 35 2c 3e
       0.49686092 -0.11026311 0.08662677 0.16817188
000370 6a 85 8e be a0 1b d1 bc a0 b8 6d be a6 42 cc 3e
       -0.27836162 -0.025525868 -0.2321496 0.398946
000380 94 89 b3 3e 9c 03 e7 3e 80 86 c0 3b 04 ea 42 3e
       0.350659 0.4511994 0.0058754086 0.19034582
000390 00 5f 0a 3e a0 6e b6 bd 90 ef 3b be 60 c9 a5 bc
       0.13512802 -0.08907819 -0.18353105 -0.020237625
0003a0 f8 f0 bf 3d a6 7a 82 be b4 59 00 be 9a 8d a4 be
       0.09372133 -0.25484198 -0.12534219 -0.32139283
0003b0 10 5f d0 bd 32 78 c6 be a8 1d 6a 3e 0a 10 dd be
       -0.10174382 -0.38763577 0.22862875 -0.431763
0003c0 6c c5 a3 be 90 37 f5 be e4 3b b3 3e 74 e7 d7 3e
       -0.31986558 -0.47893953 0.3500663 0.42168772
0003d0 be cb ab be 16 62 c3 be b8 6a ee 3d d0 5f b8 3d
       -0.3355388 -0.3816077 0.11641449 0.0900265
0003e0 4a 2d 9b 3e 74 63 4a 3e 0c 2f 9b 3e 5c 6e 88 be
       0.3030799 0.19764501 0.3030933 -0.26646698
0003f0 9c 50 f0 be 20 7e 00 bd 68 a2 20 3e 6a 6b 8a be
       -0.469365 -0.031370282 0.15686953 -0.27035075

net.0.bias f4 [128]
000000 34 f0 1a 3e 10 1c 5e bd c4 ff 78 3e a0 67 e2 3e
       0.15130693 -0.05422598 0.24316317 0.44219685
000010 00 e3 33 bd be 8a cc 3e 08 b2 5b be e0 d0 9d 3c
       -0.043917656 0.39949602 -0.21454632 0.019264638
000020 40 43 99 3e 42 09 f0 be dc ca 40 be d0 55 0c be
       0.2993412 -0.46882063 -0.18827385 -0.1370461
000030 f6 74 98 be 12 00 9d be 30 41 59 be 88 0f d8 3e
       -0.29776734 -0.30664116 -0.21216273 0.4219935
000040 2e 98 98 be 40 80 73 bc 76 52 b0 be 0c 1a bb be
       -0.29803604 -0.01486212 -0.34437913 -0.3654331
000050 a0 76 1c 3d f0 f2 ae bd 20 02 4e 3e 00 e6 17 bd
       0.038199067 -0.085424304 0.20117998 -0.03708458
000060 30 59 9e 3e ba de ee 3e c4 8f 98 be 70 87 ae 3e
       0.3092742 0.46654302 -0.29797184 0.34087706
000070 40 c1 e7 bd e4 14 28 3e 40 bd c3 bd e0 dc 76 3d
       -0.113161564 0.16414219 -0.09557581 0.060269237
000080 50 b7 7f bd ec 3e 93 be 30 a7 d9 3d 84 55 5c 3e
       -0.06243068 -0.28758943 0.106275916 0.21516997
000090 1a 47 b4 be 50 37 62 3e 60 29 d6 be f4 e7 e7 be
       -0.35210496 0.22091413 -0.41828442 -0.45294154
0000a0 58 f8 15 3e 10 81 40 be a6 c4 a2 3e 32 44 c7 be
       0.14645517 -0.18799233 0.31790656 -0.38919216
0000b0 08 00 d0 bd 58 82 76 be c8 a9 03 be e8 42 ad bd
       -0.10156256 -0.2407316 -0.12857735 -0.08460027
0000c0 f0 a2 20 3e 44 66 2a 3e 88 ed 8e bd 2a 06 93 be
       0.15687156 0.16640574 -0.06978899 -0.2871564
0000d0 b0 9f d7 3d 00 60 14 b9 b0 13 61 bd 26 9b be be
       0.10528505 -0.00014150143 -0.054950416 -0.37227744
0000e0 f6 0c 9c be 50 89 f1 be 70 52 91 3e 90 e1 4c 3e
       -0.30478638 -0.47175074 0.28383207 0.2000792
0000f0 ca 98 9b 3e 20 13 e4 3e a8 fa 71 3e e2 13 9e be
       0.30390006 0.4454584 0.23630774 -0.30874544
000100 28 0b 48 be f0 62 46 be 70 a4 70 3d e8 96 49 3e
       -0.19535506 -0.19373679 0.05875057 0.19686472
000110 78 5c 2b 3e 80 ab 95 3d 5a 68 f0 3e 18 10 4b be
       0.16734493 0.07308102 0.46954614 -0.19830358
000120 8a e4 e1 3e a0 6a e0 3c d8 80 ce be 40 66 f3 3e
       0.44119674 0.027394593 -0.40332675 0.47538948
000130 ec 12 4a 3e b8 e5 de 3d d8 b5 df bd 56 dc 93 3e
       0.1973378 0.10883659 -0.10923356 0.2887904
000140 d2 f8 b8 be 3c a5 5e be ac 01 15 be b8 b1 f6 bd
       -0.36127335 -0.2174272 -0.14551419 -0.12045616
000150 d4 d6 dd 3e ac 38 3c be a0 23 39 3e 10 e4 c1 be
       0.43327963 -0.18380994 0.18079996 -0.3786931
000160 24 51 91 3e f8 68 c0 3e d4 65 d4 3e e2 9a fd 3e
       0.28382218 0.37580085 0.4148394 0.4953223
000170 d0 23 f8 bd b0 66 43 3e 60 c4 20 be 28 4d b8 3d
       -0.12116206 0.19082141 -0.15699911 0.089990914
000180 fc 73 5a be 42 d2 f0 be b8 42 f8 3d 3c fa 1c 3e
       -0.21333307 -0.47035414 0.121221006 0.15329832
000190 d2 8b 84 be 8a 25 b3 be b2 5c b3 be 90 1b e2 3d
       -0.25887924 -0.34989578 -0.35031658 0.110404134
0001a0 36 93 89 be 00 f4 0f 3c 3c 34 a5 3e 0a 9b f8 3e
       -0.26870126 0.0087862015 0.32266414 0.48555785
0001b0 94 c2 b7 3e 40 10 f1 be bc 10 7b 3e 88 ce b6 bd
       0.3589064 -0.4708271 0.24518102 -0.089261115
0001c0 92 47 ac be 2c cb 52 3e 7e 36 96 3e 08 f0 ca 3d
       -0.33648354 0.20585316 0.2933845 0.099090636
0001d0 7c 55 87 be a4 93 23 3e c0 02 64 3d 78 61 00 be
       -0.26432407 0.15974289 0.055666685 -0.12537181
0001e0 e0 6d eb 3c 1c fb 2e 3e e8 a7 da 3d 44 49 4b be
       0.028738916 0.17087978 0.10676557 -0.19852167
0001f0 4a 23 ac 3e 68 45 fc bd fa bd bb 3e 94 34 e7 3e
       0.33620673 -0.12317926 0.36668378 0.451573

net.2.weight f4 [2, 128]
000000 18 d1 bb 3c 85 e9 f9 3c eb 94 b4 bd 24 2b ea bc
       0.022926852 0.030506859 -0.08817466 -0.028585024
000010 46 a1 d5 bc 23 a3 9f 3d 3b b6 a9 3c e3 2d 26 3c
       -0.026077878 0.07794788 0.020716777 0.010142776
000020 d3 22 35 bd ce b5 0d bd 06 10 06 bd fc 00 24 bd
       -0.044222664 -0.03459721 -0.032730125 -0.04004
000030 7a ee ef bc 76 bd 37 3d 6d 08 ac bd 76 74 b0 bd
       -0.02928852 0.04485842 -0.084000446 -0.08615963
000040 78 68 32 3c d1 c5 94 3d 53 47 96 3d 9b 63 9b bd
       0.010889165 0.07264293 0.07337823 -0.075873576
000050 8b 6c 9b 3b ab d2 a4 bd f1 bc 81 3d cd fb 99 3d
       0.004743164 -0.08047994 0.06334866 0.0751873
000060 36 d6 11 3d 18 50 19 bd 5c de e4 3c cb 01 9c 3d
       0.035604678 -0.0374299 0.02793806 0.076175295
000070 84 42 5c bd 7a 4c 24 bc 6a 8e 8f 3d 19 63 85 3d
       -0.05377437 -0.010027999 0.07009585 0.06513042
000080 3b 95 b2 3d cd 94 37 3d ac 33 a9 3d 21 96 7a 3d
       0.0871987 0.04481964 0.08261809 0.06117833
000090 bd 30 52 bd 4e 5a 34 3d 4f f0 30 3d 5c 3a f4 bc
       -0.05131601 0.044031434 0.043197926 -0.029812984
0000a0 af 29 3c 3d da 74 80 bd 66 5b 9b bc 66 5f b4 3d
       0.04593819 -0.06272288 -0.01896448 0.08807258
0000b0 ca 21 2a 3d 49 c3 99 3d f1 bd a5 3d 9d e6 a6 3d
       0.04153613 0.07507951 0.08092869 0.08149455
0000c0 0e 37 a3 bd 30 20 ed bc dd ae 9a bc ee 58 07 bd
       -0.07969485 -0.028946012 -0.01888221 -0.033043794
0000d0 d5 bf 79 3d f0 c3 f8 bc 00 f7 57 bc 20 30 87 bc
       0.06097396 -0.030366868 -0.013181448 -0.01650244
0000e0 a0 eb 3f bd f8 7b 73 bd dc 03 54 3d 3f 70 19 bd
       -0.04685557 -0.059444398 0.051761493 -0.03746056
0000f0 4c 5f 1f 3d cf e3 8c bd 58 38 83 3c 34 4d a5 bc
       0.03890924 -0.068793885 0.016018078 -0.020178415
000100 9c 45 95 bd db d4 3c bd df cf 71 bd 93 79 18 3c
       -0.072886676 -0.046101432 -0.059036132 0.009306329
000110 17 cf 79 3d d9 05 ae bb 1b 1f 23 3d 6f 0c 45 bd
       0.060988512 -0.0053107557 0.039824586 -0.04810756
000120 2b 69 ab 3d 60 68 9d 3d ed c6 83 3d 88 56 18 bd
       0.083696686 0.076859236 0.064344265 -0.037191898
000130 3b 85 c4 bc a6 e6 86 3d eb 79 14 bd fb 91 9a bd
       -0.02398931 0.065869614 -0.036249083 -0.07547375
000140 e6 3c 42 3d ea 5e 97 3d 3f 38 7f 3d d3 a1 8f 3d
       0.04742136 0.0739115 0.0623095 0.070132874
000150 52 d4 2a 3d 9a 32 20 3d 18 a9 1a 3d a2 cc 65 bb
       0.04170639 0.039110757 0.037758917 -0.0035064598
000160 d4 44 0c 3b 7b 9f 79 3d 67 c5 ea 3c 17 92 73 3c
       0.002140333 0.060943108 0.028658582 0.0148663735
000170 22 3d 5f 3d 4d b6 a3 3d 52 cb 34 bd 66 11 53 3d
       0.05450166 0.079937555 -0.044139214 0.051530264
000180 f7 c4 32 3d d4 d6 b4 3d 2b 6b 9c 3d 43 34 78 3d
       0.04364487 0.08830038 0.07637628 0.060596716
000190 d4 78 aa bd 7f 18 af 3d 0e ae ec 3c a8 ae 35 b8
       -0.083238274 0.08549594 0.02889159 -4.3316424e-05
0001a0 fb 08 89 3d 22 fd 48 bd ef e0 1c 3d d6 e1 23 3c
       0.06691166 -0.04906953 0.03830045 0.010002574
0001b0 66 12 b3 bd 84 82 85 3c 1e 7a 57 3d 48 8b 47 bd
       -0.087437436 0.016297586 0.052606694 -0.048716813
0001c0 c4 69 7f 3c 08 59 17 bd 64 5b 9c bc 34 df ab bd
       0.015589181 -0.03695014 -0.019086547 -0.08392182
0001d0 5b d4 9a bd 17 74 d8 3c c7 5c 92 3d 25 cc 81 bd
       -0.07560035 0.026422543 0.07146602 -0.063377656
0001e0 13 f6 f4 3c fb 47 9f bd 35 f3 40 bd 5d 8d a7 bb
       0.029902494 -0.07777401 -0.04710694 -0.0051132874
0001f0 9b 0e 20 bd 35 aa 47 bd de 1c 40 3c 9e 6d 90 3d
       -0.03907643 -0.048746306 0.0117256325 0.07052158
000200 b1 14 40 3c bf cd 5f bd 84 38 15 3d 16 4a 94 3a
       0.011723683 -0.054639574 0.03643085 0.0011313583
000210 44 bd 9c 3d 79 32 17 3d 44 17 c6 bc bf 93 3a 3d
       0.07653287 0.03691337 -0.024181016 0.045551058
000220 08 4d a0 bb 52 0d 27 3d c1 53 0e bd 00 02 b1 3d
       -0.0048919953 0.040784188 -0.034747843 0.086429596
000230 c8 70 31 3d f9 b5 17 3c e1 01 a2 3d ed 70 cc 3c
       0.043320447 0.009259694 0.079105146 0.024956191
000240 8d c0 9a 3d 15 2e 05 bc 8b e1 82 bd c3 3f 13 3d
       0.075562574 -0.008128663 -0.06390675 0.03594948
000250 b1 4c 6d bd c3 80 0f bd 7a 1e b8 3c c1 6e 1d bd
       -0.057934467 -0.035034906 0.02247547 -0.0384357
000260 a8 65 9a 3d a6 ab b1 bd 04 16 99 bd 87 63 67 3c
       0.07538921 -0.086753175 -0.07474902 0.01412285
000270 4c bc 97 bd 3f 9e 96 3c c7 d7 4a bd 2d d1 92 bc
       -0.07408962 0.018386004 -0.049522188 -0.017922008
000280 b8 91 b3 3d 23 0c 8a ba fa 14 7b 3c b2 84 7c 3d
       0.08768028 -0.0010532181 0.015324825 0.061649986
000290 5e ca 85 bd 3a 5d b4 3d 7a bc 24 bd 38 04 f0 bb
       -0.06532739 0.08806844 -0.040218808 -0.0073247217
0002a0 6d ef f3 3a 37 30 9a 3d 88 fc 34 3d 07 bd b3 3d
       0.0018610783 0.075287275 0.044186145 0.087762885
0002b0 53 c1 c2 bc 7c 0c 8a 3d f2 46 30 bd bc 30 af bd
       -0.023773825 0.067406625 -0.04303641 -0.08554217
0002c0 73 1a 07 bd 55 97 93 3d 1b 15 0a bc 32 ab 48 bd
       -0.03298421 0.07206599 -0.0084278835 -0.04899139
0002d0 32 87 a4 bd 17 96 7b bd c6 b6 ff 3c a4 0b 4f bd
       -0.08033599 -0.061422434 0.031215083 -0.05054821
0002e0 c9 78 6f bd e1 d4 77 bd 49 c5 11 bd 23 06 9a bd
       -0.0584648 -0.06050575 -0.035588536 -0.07520702
0002f0 d9 78 5b bd ba c5 aa 3d c6 45 08 3c 94 ff 8d bd
       -0.053582046 0.083384946 0.0083174165 -0.06933513
000300 42 65 7f 3d 43 30 78 3d 6c aa ac bd b0 b3 9a bd
       0.062352426 0.0605929 -0.08430943 -0.07553804
000310 0f 57 9b bd c2 71 50 bd 8c d2 4d 3d 8d 1b 8d 3d
       -0.075849645 -0.050889738 0.05024962 0.068900205
000320 43 78 9a bd c8 8b a8 3d c5 0c 83 3b a7 e4 b2 bd
       -0.07542469 0.08229786 0.003999325 -0.08735018
000330 fc d5 a5 3a 59 27 8c bc e4 78 70 bc f1 63 79 bd
       0.0012652273 -0.017108606 -0.01467726 -0.060886327
000340 a1 05 9d bd 28 9c a8 3d 58 27 88 bd ec 02 64 3d
       -0.07667089 0.082329094 -0.06648129 0.05566685
000350 78 e9 93 3d d7 f6 89 3d 91 0c d8 bb 2d e6 95 bd
       0.07222265 0.06736534 -0.006593295 -0.07319293
000360 e3 91 61 3d 67 08 8f bd e2 f0 aa 3d ac 34 c7 bc
       0.05507077 -0.069840245 0.08346726 -0.024317108
000370 eb f0 8a bd 8c df 91 3d f0 57 84 3c 42 e4 cf bc
       -0.06784233 0.07122716 0.016155213 -0.025377396
000380 b2 78 bd bc 18 5a 9b bd 4a b1 3f bd ae 8d a3 3d
       -0.023128841 -0.075855434 -0.046799935 0.07986008
000390 5b b6 c8 bb 23 ae 91 3d b4 a8 50 bc 1a c9 f9 bc
       -0.006125254 0.07113292 -0.012735534 -0.0304914
0003a0 8d 89 01 3d ff 92 b8 bb a2 a8 b2 bd 61 46 93 3d
       0.03162532 -0.0056327577 -0.087235704 0.07191158
0003b0 56 9b af bd fd 4e 26 3d 33 34 90 3d 4b 60 8a 3d
       -0.0857455 0.040602673 0.07041206 0.06756648
0003c0 63 d0 dd 3b 4f 8e b0 bc 0b 3a 27 3d 85 15 a7 bd
       0.0067692264 -0.021552233 0.04082684 -0.081584014
0003d0 55 9d 02 3d f4 21 78 3d b2 5f 06 3d 52 58 a0 bc
       0.031888325 0.060579255 0.032806106 -0.019573364
0003e0 34 c0 83 3d 77 64 f2 3c cc 6a 86 3c 94 05 ab bc
       0.06433144 0.029588921 0.016408347 -0.020876683
0003f0 5b 70 80 bd ea fc b0 3d dc a1 9c 3d 0a 46 ae 3d
       -0.0627143 0.086419895 0.0764806 0.08509453

net.2.bias f4 [2]
000000 4e 90 3b 3c c3 a4 49 3d
       0.011447979 0.049229395
