models/agent4.pt (torch, 5512 bytes, 4 tensors)

net.0.weight f4 [128, 4]
-0.125462 0.40285516 0.45292777 0.15175259 0.19726628 0.25878793 -0.14177829 0.35124642
0.23790658 -0.17572409 -0.18947405 -0.39577973 -0.25052053 -0.46965986 0.13197827 -0.116702795
0.28782588 -0.115052044 -0.23542589 -0.43720865 -0.018630803 0.20170009 -0.18383163 -0.25388384
0.28743303 0.38729078 0.32399434 -0.3896739 -0.1077826 0.31969815 -0.44247317 0.4655394
0.23687935 0.05701834 0.49012303 -0.3194638 -0.1334272 -0.48653227 0.39353806 -0.3373466
0.31125325 0.09382361 -0.3035884 0.04990232 -0.3181054 0.4308995 -0.4469934 -0.10803604
0.09313011 -0.25627786 -0.11232895 -0.07645506 -0.3909849 -0.23678124 -0.09617239 0.46955073
0.30658233 0.28103417 0.24556154 -0.4489668 0.48939204 -0.23048568 -0.39063358 -0.3771664
0.0075988173 0.32214344 0.4084568 0.017387152 0.33786654 0.42892808 -0.034166932 0.24479973
-0.21054101 -0.07475066 0.14736563 -0.011485875 0.23264319 -0.071083605 0.49954998 0.22405559
0.4145726 0.014865696 0.4392308 0.15014589 0.022766292 0.4052049 -0.49197185 0.041517854
0.38706803 -0.42610788 -0.39816183 -0.17597353 0.48152125 0.2609322 0.120529175 0.010109067
-0.4450035 -0.3121671 -0.028214931 -0.26719826 -0.4376318 -0.0029908419 -0.13065922 -0.46572143
0.42895538 -0.4921208 0.25485808 -0.321945 0.47627598 0.30431688 0.1800754 -0.053405583
-0.011812329 0.35231107 -0.45295942 0.07381338 0.10512918 0.30404305 -0.07093656 0.08064878
0.20222288 -0.4441417 0.30916965 0.1182065 -0.36238557 -0.2880904 -0.12802887 -0.33891565
0.3599193 -0.41462177 0.273704 0.08971244 -0.38169944 -0.4090206 -0.37964338 0.011182308
0.059782505 0.15616643 0.14998305 -0.060276926 -0.038730025 0.26537693 0.29740524 0.21724886
-0.38093525 0.38568968 0.28955656 0.0042964816 0.25101244 0.26261657 0.33704948 0.2340104
0.36469924 0.08375794 -0.36280394 -0.11269325 0.29229128 -0.34071076 0.32494926 0.12585855
0.45511943 0.27790928 -0.46823674 -0.2786039 -0.10961527 0.26501805 0.3771413 0.25967032
0.4550678 -0.46787196 0.1353879 -0.12119424 0.29038352 0.31802195 -0.31763685 -0.096818924
0.21647507 0.23458117 0.011218369 -0.14450854 -0.4911217 0.07785797 -0.48076916 -0.4205655
-0.075454056 -0.22443974 -0.49976188 -0.029985249 0.26820827 0.42931217 -0.46379548 -0.49445575
-0.038435698 0.44731534 0.17461872 -0.15052825 0.06583959 0.045487106 -0.120391846 -0.078950465
-0.022488415 -0.069718 -0.12432349 -0.389005 0.06540853 -0.27447104 0.38592106 0.25221902
0.41071528 0.3262173 0.037176073 -0.24509346 0.35394865 0.25926793 -0.1597321 -0.11962694
-0.009735107 0.29058146 -0.28672802 0.24775136 0.26270956 -0.17176944 0.48430926 -0.24580294
-0.08028829 -0.34851456 -0.16726726 0.2886474 -0.08033162 -0.45990628 -0.09834993 -0.44911504
-0.1844182 -0.46086025 -0.44091398 -0.17450535 0.059126973 0.0073746443 0.461752 -0.008286834
0.30441213 -0.48662293 0.2728141 -0.0381549 0.11116558 0.48011357 -0.21353692 -0.07452166
0.22802037 0.0004069209 0.46581084 0.32639778 0.47748387 -0.13011217 0.12400782 -0.42750454
00000000: 1c79 00be 0843 ce3e 26e6 e73e 0865 1b3e
00000010: 2c00 4a3e da7f 843e 542e 11be 92d6 b33e
00000020: c89d 733e 04f1 33be 7c05 42be a4a3 cabe
00000030: 3a44 80be 4277 f0be 5025 073e e001 efbd
00000040: ea5d 933e 68a0 ebbd 7c13 71be d0d9 dfbe
00000050: a09f 98bc 788a 4e3e 5c3e 3cbe 10fd 81be
00000060: 6c2a 933e fa4a c63e 96e2 a53e 5683 c7be
00000070: 20bd dcbd 7aaf a33e d88b e2be 2e5b ee3e
00000080: 8090 723e 108c 693d 68f1 fa3e c290 a3be
00000090: 24a1 08be c21a f9be d27d c93e b2b8 acbe
000000a0: 965c 9f3e 9826 c03d f06f 9bbe 6066 4c3d
000000b0: b6de a2be dc9e dc3e 52dc e4be 0042 ddbd
000000c0: 00bb be3d da36 83be b80c e6bd 7894 9cbd
000000d0: 2c2f c8be c876 72be 08f6 c4bd f468 f03e
000000e0: 5cf8 9c3e b6e3 8f3e 7c74 7b3e fade e5be
000000f0: 9891 fa3e 7004 6cbe 2001 c8be f41b c1be
00000100: 80ff f83b fcef a43e 4021 d13e 806f 8e3c
00000110: d8fc ac3e 769c db3e a0f2 0bbd c8ac 7a3e
00000120: 1098 57be e016 99bd 04e7 163e 402f 3cbc
00000130: 043a 6e3e 4894 91bd 04c5 ff3e d46e 653e
00000140: dc42 d43e 408f 733c dce2 e03e d8bf 193e
00000150: 6080 ba3c 0477 cf3e bce3 fbbe a00e 2a3d
00000160: c82d c63e d02a dabe dedb cbbe 6832 34be
00000170: f489 f63e e898 853e 00d8 f63d 80a0 253c
00000180: 80d7 e3be 5ed4 9fbe 0023 e7bc 36ce 88be
00000190: 4611 e0be 0002 44bb 88cb 05be 0a73 eebe
000001a0: 0aa0 db3e 42f7 fbbe c27c 823e fad5 a4be
000001b0: 72da f33e 6ccf 9b3e b065 383e d0bf 5abd
000001c0: 8088 41bc 1e62 b43e 4cea e7be 782b 973d
000001d0: f84d d73d 88ab 9b3e 3047 91bd 302b a53d
000001e0: 8413 4f3e 8a66 e3be 7c4b 9e3e 4016 f23d
000001f0: 9a8a b9be 9680 93be 001a 03be 5a86 adbe
00000200: 5847 b83e 4e49 d4be ee22 8c3e 28bb b73d
00000210: 1c6e c3be 266b d1be 9e60 c2be 0036 373c
00000220: 80de 743d 18ea 1f3e 2895 193e f0e4 76bd
00000230: 60a3 1ebd 7cdf 873e 8045 983e 7c76 5e3e
00000240: f209 c3be 1e79 c53e c240 943e 80c9 8c3b
00000250: b484 803e ae75 863e c091 ac3e 6ca0 6f3e
00000260: dcb9 ba3e 4889 ab3d 70c1 b9be b8cb e6bd
00000270: 34a7 953e a471 aebe c05f a63e 10e1 003e
00000280: 6a05 e93e 204a 8e3e babc efbe 2ca5 8ebe
00000290: f87d e0bd 72b0 873e aa18 c13e 82f3 843e
000002a0: a6fe e83e ea8c efbe 20a3 0a3e b034 f8bd
000002b0: 26ad 943e c6d3 a23e 4ca1 a2be 0049 c6bd
000002c0: a4ab 5d3e 0c36 703e 40cd 373c 0cfa 13be
000002d0: 4e74 fbbe 0074 9f3d 6027 f6be 5c54 d7be
000002e0: a887 9abd 88d3 65be cae0 ffbe a0a3 f5bc
000002f0: 9852 893e cece db3e 9a76 edbe 4e29 fdbe
00000300: c06e 1dbd 8406 e53e 40cf 323e 1424 1abe
00000310: e8d6 863d b050 3a3d 0090 f6bd c8b0 a1bd
00000320: a039 b8bc 50c8 8ebd 509d febd aa2b c7be
00000330: e8f4 853d 7887 8cbe 7297 c53e da22 813e
00000340: 4649 d23e f405 a73e f045 183d c8f9 7abe
00000350: c238 b53e c4be 843e d090 23be f8fe f4bd
00000360: 0080 1fbc 18c7 943e 04ce 92be 88b2 7d3e
00000370: de81 863e 54e4 2fbe 62f7 f73e c4b3 7bbe
00000380: 306e a4bd 8070 b2be 1c48 2bbe 98c9 933e
00000390: e884 a4bd d678 ebbe b06b c9bd 68f2 e5be
000003a0: 20d8 3cbe e0f5 ebbe 7abf e1be 88b1 32be
000003b0: 202f 723d 00a7 f13b c26a ec3e 80c5 07bc
000003c0: e8db 9b3e a426 f9be 4aae 8b3e 5048 1cbd
000003d0: c8aa e33d 72d1 f53e 6ca9 5abe d09e 98bd
000003e0: 2c7e 693e 0058 d539 c27e ee3e 9c1d a73e
000003f0: c478 f43e 203c 05be d0f7 fd3d e0e1 dabe

net.0.bias f4 [128]
0.33802122 -0.42649025 0.24849576 -0.08468318 0.13003355 -0.41894203 -0.41432208 -0.08275157
0.3952083 0.4117657 -0.42391115 0.12677902 0.16083062 -0.4738683 -0.21505928 -0.16498536
-0.33186048 -0.2602147 -0.46436125 0.33024067 0.4290775 -0.22637165 -0.32086134 0.14434457
-0.48645353 -0.1839906 0.27239108 -0.43245828 -0.4005373 0.22026676 0.4851839 0.30489135
-0.0780974 -0.32813025 0.08836192 -0.15983039 0.22988611 -0.085387826 -0.36566013 0.17235672
-0.046796918 0.025710046 0.42365193 0.14838815 -0.03462875 0.36238998 0.4158349 -0.436543
0.40257984 -0.35024238 0.080468 0.010949314 0.4292494 0.17188078 -0.38244087 0.0066606402
0.15651917 -0.29042155 0.30307245 0.053712368 0.41564304 0.2501067 0.42803437 0.24360561
0.068599045 -0.039817214 -0.288737 0.29919517 0.12944484 -0.423841 0.4433753 0.3808027
-0.07533604 0.00747025 0.3522154 -0.13798803 -0.37721527 0.248038 0.29838198 0.33724016
0.48119414 0.08962643 -0.36424655 0.4644099 -0.19601 0.25629652 -0.07225764 0.10386413
-0.2727921 0.39031744 0.36352605 0.17164844 -0.20586854 0.053572 0.40104413 -0.017154276
0.042583585 0.38117027 -0.01500845 -0.4177512 -0.11313647 -0.45657688 -0.18433446 0.3425669
-0.062540054 -0.4363885 0.46862537 -0.46004528 0.33107162 -0.49631798 -0.12150085 -0.493172
-0.09896964 0.15852839 0.3828373 0.03899777 -0.33708167 0.48512506 0.2737704 -0.3473143
0.24860406 -0.37655884 -0.19808537 -0.3505317 -0.0759573 0.32984334 0.058025777 0.39348322
00000000: 1e11 ad3e ee5c dabe ac75 7e3e 606e adbd
00000010: 8427 053e 927f d6be 0622 d4be a879 a9bd
00000020: be58 ca3e f4d2 d23e e20a d9be 5cd2 013e
00000030: c8b0 243e de9e f2be 8038 5cbe ecf1 28be
00000040: 9ee9 a9be dc3a 85be c2c0 edbe 4e15 a93e
00000050: 0cb0 db3e f8cd 67be f047 a4be 10cf 133e
00000060: 7010 f9be 0868 3cbe d876 8b3e 2c6b ddbe
00000070: 3a13 cdbe 9c8d 613e 066a f83e b81a 9c3e
00000080: 88f1 9fbd b000 a8be 18f7 b43d 94aa 23be
00000090: 4467 6b3e d0df aebd ce37 bbbe 487e 303e
000000a0: 20ae 3fbd e09d d23c e8e8 d83e 10f3 173e
000000b0: e0d6 0dbd 2e8b b93e 50e8 d43e 9082 dfbe
000000c0: f21e ce3e f852 b3be 68cc a43d c064 333c
000000d0: 94c6 db3e 8401 303e 4acf c3be 8041 da3b
000000e0: 9046 203e 22b2 94be 502c 9b3e 8001 5c3d
000000f0: 2acf d43e fc0d 803e 5227 db3e c073 793e
00000100: a87d 8c3d 6017 23bd 56d5 93be 1c30 993e
00000110: 308d 043e b001 d9be 1602 e33e 92f8 c23e
00000120: c849 9abd 00c9 f43b 9455 b43e bc4c 0dbe
00000130: 5c22 c1be acfd 7d3e 86c5 983e beaa ac3e
00000140: 145f f63e 108e b73d 867e babe 22c7 ed3e
00000150: d8b6 48be 4c39 833e d0fb 93bd b8b6 d43d
00000160: 68ab 8bbe b0d7 c73e 1620 ba3e 9cc4 2f3e
00000170: 34cf 52be 506e 5b3d a855 cd3e 2087 8cbc
00000180: 206c 2e3d c028 c33e 00e6 75bc 7ce3 d5be
00000190: 18b4 e7bd 72c4 e9be 2cc2 3cbe ee64 af3e
000001a0: 0015 80bd 506e dfbe aaef ef3e 0e8b ebbe
000001b0: 3882 a93e 641d febe 70d5 f8bd 0a81 fcbe
000001c0: 98b0 cabd 4455 223e 4003 c43e 20bc 1f3d
000001d0: f895 acbe 5062 f83e a22b 8c3e 2ed3 b1be
000001e0: 1092 7e3e 52cc c0be e4d6 4abe e478 b3be
000001f0: 808f 9bbd 3ae1 a83e 70ac 6d3d a276 c93e

net.2.weight f4 [2, 128]
0.0424767 0.019899402 0.005008352 0.046733066 0.016528951 -0.018793648 0.03302555 0.006960942
-0.06130439 0.06773029 -0.07964227 -0.032006938 0.040425994 0.026355837 0.01993686 -0.070621796
-0.027164793 0.075203344 0.017085584 0.039930776 0.009655537 -0.011847985 -0.08688212 0.06634015
0.016643811 -0.08629453 -0.00876312 -0.05309111 0.07430008 0.05728373 -0.063962825 0.04628629
0.0039036516 -0.005467795 -0.01585282 0.07667102 0.044953186 -0.058006506 0.0579732 -0.060294773
-0.030810041 0.04184692 0.070333146 0.07191045 -0.072611056 -0.05021991 0.0026530281 0.060751405
0.050861962 -0.05525278 -0.06743417 -0.031358268 -0.023726936 -0.018382464 -0.07902126 -0.04506495
0.007158052 0.06272159 0.01272446 0.07734585 0.0015864811 0.03173133 0.07776503 -0.0145473005
-0.008003423 -0.06272967 -0.08656433 0.06198424 -0.064571165 0.06024796 0.007305566 0.02473078
-0.00469891 0.07331173 0.010379009 -0.08247466 -0.0069599617 -0.034399226 0.020004528 0.07673749
0.033480182 -0.07550877 0.087631 0.0750093 0.013813281 -0.042155255 -0.032637823 0.068225674
0.06838578 0.031159375 -0.05576458 0.003868775 -0.031731877 -0.05366811 -0.0706451 -0.045221522
-0.013370245 0.07892703 0.037818007 0.012626131 0.037763767 -0.07830263 -0.025958823 0.05409452
0.012537202 0.047405828 -0.024223132 -0.07120527 -0.026438855 0.06736474 0.043520045 -0.083663546
0.021201044 0.06688714 -0.081992194 0.011830504 -0.08748775 0.08511564 -0.08423496 0.08138569
0.08197521 0.028427722 -0.08123771 -0.018501181 -0.018003816 0.05538965 0.03222409 -0.06933618
0.028949669 -0.000486775 -0.0060411394 -0.041597 -0.05983239 0.07545194 -0.07190672 -0.020631947
0.00806345 -0.047101643 0.014125232 -0.07633853 -0.051006872 -0.06686771 -0.034034677 0.03268842
0.014648105 0.05771116 0.02566447 -0.009058032 0.049990397 -0.011120309 0.044239882 0.05621002
0.04013695 -0.009193481 0.055021286 -0.006002354 0.0039432696 0.075154655 -0.07149386 0.036768667
0.031268105 -0.07304635 0.06506348 -0.08628282 -0.0502076 -0.066059366 0.0066900956 0.007859018
0.08511393 -0.0828494 0.08834343 0.001057064 -0.011279023 -0.032471113 0.056740426 -0.0784796
0.041840326 -0.041690104 0.058077008 -0.06812095 0.048953176 0.0011155427 -0.04299203 -0.03996576
0.07160978 -0.086120985 -0.04435728 -0.03196987 -0.0626338 0.0029286686 0.056053262 0.01785588
0.03691908 0.040579196 -0.058087237 -0.07785331 0.052108444 -0.023271076 0.03615187 -0.07559343
-0.06304467 -0.04588419 -0.048733115 -0.010147865 -0.0020001628 0.08190139 -0.015101985 0.07641808
0.024913613 0.05856119 0.012497046 -0.013102075 0.055788644 -0.07561149 -0.008373209 -0.053182032
-0.06995044 -0.008307017 0.045117315 -0.043140903 -0.05278402 -0.054484516 -0.051250737 -0.006426931
0.02418991 -0.007846121 -0.06840505 0.0010346208 -0.07355188 -0.024398126 0.0822397 -0.02483777
-0.04093066 -0.03397235 0.029215869 0.05879341 -0.046643443 0.057698287 -0.025930384 -0.019106166
0.06727438 -0.0303726 -0.027528752 0.03546669 -0.020966487 -0.007329811 0.048254885 0.06807148
-0.0701866 0.002526398 -0.053299103 -0.03266957 -0.058985557 0.04590916 0.010478475 -0.002917605
00000000: 0cfc 2d3d 1204 a33c 1a1d a43b 2c6b 3f3d
00000010: b967 873c 23f5 99bc cd45 073d 9d18 e43b
00000020: 501a 7bbd 2eb6 8a3d 7d1b a3bd b519 03bd
00000030: ba95 253d 32e8 d73c a052 a33c 29a2 90bd
00000040: b388 debc 3604 9a3d 11f7 8b3c 748e 233d
00000050: 4232 1e3c 0d1e 42bc 41ef b1bd 58dd 873d
00000060: 9a58 883c 30bb b0bd 3093 0fbc 1076 59bd
00000070: a42a 983d 58a2 6a3d f1fe 82bd b196 3d3d
00000080: 68d4 7f3b 302b b3bb c6dd 81bc b205 9d3d
00000090: d520 383d 3b98 6dbd 4e75 6d3d a7f7 76bd
000000a0: 5765 fcbc ad67 2b3d d30a 903d c945 933d
000000b0: 1bb5 94bd 64b3 4dbd 6dde 2d3b 77d6 783d
000000c0: a254 503d bd50 62bd ed1a 8abd 8771 00bd
000000d0: fe5e c2bc d296 96bc e6d5 a1bd 0696 38bd
000000e0: 188e ea3b 2d74 803d 417a 503c 8067 9e3d
000000f0: 79f1 cf3a b6f8 013d 4643 9f3d cd57 6ebc
00000100: ca20 03bc 6a78 80bd a448 b1bd 30e3 7d3d
00000110: e33d 84bd 91c6 763d 8863 ef3b 3498 ca3c
00000120: 50f9 99bb 7624 963d b80c 2a3c 79e8 a8bd
00000130: 6410 e4bb 34e6 0cbd 89e0 a33c 8c28 9d3d
00000140: 8422 093d 58a4 9abd e277 b33d 7a9e 993d
00000150: 1a51 623c fdaa 2cbd 3daf 05bd e7b9 8b3d
00000160: d80d 8c3d f241 ff3c 6669 64bd 468b 7d3b
00000170: 49f9 01bd 18d3 5bbd 61ae 90bd 343a 39bd
00000180: df0e 5bbc 7fa4 a13d 0ee7 1a3d d5dd 4e3c
00000190: 2eae 1a3d 215d a0bd 99a7 d4bc 3792 5d3d
000001a0: d668 4d3c 9d2c 423d 976f c6bc 12d4 91bd
000001b0: 4c96 d8bc 86f6 893d 1342 323d cb57 abbd
000001c0: d0ad ad3c 20fc 883d 86eb a7bd bbd4 413c
000001d0: c72c b3bd 1c51 ae3d 6183 acbd 8aad a63d
000001e0: 9ee2 a73d 41e1 e83c f55f a6bd ca8f 97bc
000001f0: bd7c 93bc 42e0 623d 68fd 033d 2100 8ebd
00000200: db27 ed3c d635 ffb9 c0f4 c5bb 9e61 2abd
00000210: cf12 75bd 8c86 9a3d d543 93bd 5404 a9bc
00000220: 901c 043c a7ed 40bd 846d 673c 6057 9cbd
00000230: 95ec 50bd f0f1 88bd f267 0bbd 4be4 053d
00000240: 9bfe 6f3c 8a62 6c3d 4b3e d23c 2468 14bc
00000250: bbc2 4c3d f531 36bc e134 353d 7a3c 663d
00000260: a466 243d 41a0 16bc 005e 613d 65af c4bb
00000270: 8b36 813b afea 993d 5f6b 92bd be9a 163d
00000280: fc12 003d 5399 95bd 0040 853d 0cb5 b0bd
00000290: 7ca6 4dbd 224a 87bd 9738 db3b 1cc3 003c
000002a0: 3650 ae3d f2ac a9bd 66ed b43d 2f8d 8a3a
000002b0: a7cb 38bc 6e00 05bd a668 683d eab9 a0bd
000002c0: c360 2b3d 3ec3 2abd 28e2 6d3d ff82 8bbd
000002d0: 2083 483d 6737 923a 6918 30bd 23b3 23bd
000002e0: 26a8 923d 3360 b0bd fbaf 35bd d7f2 02bd
000002f0: 2646 80bd e8ee 3f3b 1b98 653d 7f46 923c
00000300: 7638 173d 5f36 263d e2ec 6dbd 8e71 9fbd
00000310: aa6f 553d fca2 bebc fc13 143d bad0 9abd
00000320: 901d 81bd 0ff1 3bbd 609c 47bd 3b43 26bc
00000330: 2a15 03bb eabb a73d 516e 77bc 1581 9c3d
00000340: a217 cc3c dcdd 6f3d 69c0 4c3c 16aa 56bc
00000350: a282 643d 32da 9abd c92f 09bc 67d5 59bd
00000360: 2d42 8fbd 281a 08bc efcc 383d 84b4 30bd
00000370: 0e34 58bd 282b 5fbd 4bec 51bd 0199 d2bb
00000380: eb29 c63c 048d 00bc f217 8cbd 1d9c 873a
00000390: 5ea2 96bd 94de c7bc 4a6d a83d 9478 cbbc
000003a0: e8a6 27bd 9726 0bbd 1e56 ef3c 5cd1 703d
000003b0: 320d 3fbd 0a55 6c3d f56b d4bc 8984 9cbc
000003c0: 26c7 893d f5cf f8bc fa83 e1bc 8545 113d
000003d0: e9c1 abbc e92e f0bb eaa6 453d 0f69 8b3d
000003e0: febd 8fbd ed91 253b 2950 5abd 87d0 05bd
000003f0: d79a 71bd 3e0b 3c3d e9ad 2b3c 4a35 3fbb

net.2.bias f4 [2]
0.005346602 0.075832285
00000000: 8c32 af3b f54d 9b3d
