models/agent1.pt (torch, 5512 bytes, 4 tensors)

net.0.weight f4 [128, 4]
00000000: 7ce1 ef3e e878 2b3e 746c 7bbe 5488 b53e
00000010: 6ea7 c93e a6b4 a83e 3019 a73d 20d0 b4be
00000020: 100f fe3e 7ad4 e03e f0b3 a13e d44b efbe
00000030: 369e dabe dc42 37be 7830 12be a07c 793e
00000040: f82c cdbd 5ab2 ca3e 4000 63bc 1489 673e
00000050: 3249 d53e 88be c03e 70c1 51be d0ee 333d
00000060: 0094 41bd eed0 cebe a609 99be 221d f7be
00000070: 30c4 ffbd 3c65 593e accc bc3e f8fb 5fbe
00000080: c0c7 c23c e077 cebe 9c37 98be 0c04 bebe
00000090: fac1 ba3e 6a91 963e 148c cb3e 00ba bbbb
000000a0: c81d 0dbe ec3f 18be 16b5 ce3e d6df a5be
000000b0: 7622 d0be d0a3 3bbd e44f b5be 8031 24bc
000000c0: f00e fcbe 005b f6be 7c1c 213e 807f d9bb
000000d0: b04c c43d 7675 96be 705d 92be 9cbc 8bbe
000000e0: 006e 8f3b 7481 0a3e f875 d2bd fce3 b13e
000000f0: f00e ac3d 68fb 35be d0fd 32be 2097 1d3e
00000100: d02a 35be 803a 9f3b ba72 a33e 169f dfbe
00000110: c829 4d3e 3ca3 31be 624d 8cbe e868 ccbd
00000120: c039 e1bc a0b3 59be b6bb 9bbe d0c1 683e
00000130: 884f eebd e002 52bd f648 ac3e f0fa 4ebe
00000140: c036 7bbd d4c0 453e 5c6c 343e eab5 8cbe
00000150: 509b 48bd 5c16 dc3e 4cab 5b3e b63a 9bbe
00000160: e04c a1bc 40b2 ad3c ccb2 5e3e 6228 8fbe
00000170: d0ff 1e3d f87e 833d 74e1 6cbe 4c58 7c3e
00000180: 088f a13d ac36 583e bcb8 2ebe 4825 693e
00000190: bc8d 0cbe 0c98 673e 1413 053e 30c1 593e
000001a0: 2095 f33e a014 de3e 0cb4 d7be 78a7 f33d
000001b0: 2e92 a93e 787a e2be 206a 4e3d acde 86be
000001c0: da1f 88be baa4 b33e 9827 da3d a0f3 4cbe
000001d0: 48ba d13e 16a8 9f3e f809 b13d 58ed e3bd
000001e0: 42d1 d23e 9cde 90be c6f7 91be d88d abbd
000001f0: 305d 833e f031 163e 50ff dc3d 08f0 2e3e
00000200: b8ca 73be 147c 1ebe 78c3 8a3d 6a05 9b3e
00000210: 3c5c b73e f858 cd3e e896 aa3d aeba d73e
00000220: 60b5 3f3d 8066 a73e 800c 34bc b004 153e
00000230: 5075 28bd 082a c63e 405e ad3d 4029 bfbe
00000240: c8bd a03d 005f 763d 84f6 c73e 2a88 fabe
00000250: bc75 22be fe66 cfbe 380e 95bd 684f 5e3e
00000260: d63d 98be 2047 30be d209 bf3e e0f2 e9be
00000270: 0061 793b 2874 92be ccf1 a4be 1061 a1be
00000280: 0838 74be 9882 e0be e48d 753e 0c92 0a3e
00000290: 38fb 613e 58dc f3bd 50ce 9c3e d698 a23e
000002a0: dc12 803e c0e8 893c 000a b23e c038 17be
000002b0: ac4e 2d3e a83c 33be 1c61 04be 780f d53d
000002c0: 9ecd b53e 02a6 d33e 7863 c2be 58e0 9d3e
000002d0: 1a23 e63e d221 dfbe 48e7 1d3e 9608 f13e
000002e0: 60e6 3e3d 906c 7ebe 2831 0ebe 3cfd 463e
000002f0: 1eec d9be e4c1 583e 9833 bfbd 3e35 fabe
00000300: 68f2 e5be bcb8 9ebe 8cfb 0c3e 8489 4fbe
00000310: 9667 8a3e 9246 fabe 1088 5e3d d6a5 bc3e
00000320: aae6 853e 5c64 763e b0f6 53bd eedb ac3e
00000330: b0cc 113d c874 84be b080 82be 8057 dbbd
00000340: 00c8 dfb9 7852 d3bd 9049 ba3e ee58 ca3e
00000350: a0a2 08be e801 5f3e e05b d43e 9c0d 0abe
00000360: 1887 e5bd 04a6 75be da40 8fbe e0fa 543e
00000370: 364f 8b3e dc70 7cbe f8fd 3c3e 3ac2 91be
00000380: ae88 b2be 5e33 a73e daf4 87be a021 8cbc
00000390: 2029 efbd 40aa 073e 7874 94be 4416 63be
000003a0: a84d f73d 4c98 6abe 70d2 b5be 8840 f53e
000003b0: 7a6b 9c3e 18eb e5be 400b 57bc 003c c5be
000003c0: 340a 713e 80b7 903e c230 e8be e09d b83e
000003d0: f8d8 d83e 6090 cc3e 58b6 fabd 0089 e63d
000003e0: 4e14 bbbe f026 d1bd 8ac0 bb3e 08bd 503e
000003f0: 40b4 183e 5c3a 583e 48f8 403e c070 ebbc
0.46851718 0.16745341 -0.2455309 0.35455573 0.3938555 0.32950324 0.08159101 -0.35315037
0.49620867 0.43912107 0.31582594 -0.4673754 -0.4269883 -0.17896599 -0.14276302 0.24363947
-0.10018343 0.39589196 -0.01385504 0.22610885 0.41657406 0.37645364 -0.20483947 0.04392892
-0.047260284 -0.40393776 -0.29890174 -0.48264414 -0.12488592 0.21230024 0.36874902 -0.21873462
0.023776889 -0.40325832 -0.29729927 -0.37112463 0.36476117 0.29407817 0.3975531 -0.00572896
-0.13780892 -0.14868134 0.40372533 -0.32397336 -0.40651292 -0.04581052 -0.35412514 -0.010021567
-0.49230146 -0.48116302 0.15733522 -0.0066375136 0.095849395 -0.2938649 -0.28586912 -0.27292335
0.0043771267 0.13525945 -0.10276407 0.3474425 0.084012866 -0.17771685 -0.17479634 0.15389681
-0.17692113 0.0048592687 0.31923467 -0.4367606 0.2003547 -0.17347425 -0.27402788 -0.09980947
-0.027493358 -0.21259928 -0.3041665 0.22730184 -0.11636263 -0.051272273 0.33649415 -0.20212913
-0.06133151 0.1931184 0.17619461 -0.2748254 -0.048976243 0.4298581 0.21452063 -0.3031823
-0.019689977 0.02120316 0.21747893 -0.27960497 0.03881818 0.06420702 -0.23132879 0.24643058
0.07888609 0.21114606 -0.17062658 0.22768128 -0.13725942 0.22616595 0.12995559 0.21265101
0.4757471 0.4337511 -0.42129552 0.118971765 0.3311934 -0.4423406 0.050394177 -0.2634176
-0.265868 0.35086614 0.10652083 -0.2001481 0.40962434 0.31182927 0.086444795 -0.11129254
0.41175276 -0.28294837 -0.2850935 -0.08376664 0.25657034 0.14667487 0.107908845 0.17083752
-0.238078 -0.1547702 0.06775564 0.30277568 0.35812557 0.4010694 0.08329564 0.42134613
0.046803832 0.3269539 -0.010989308 0.1455257 -0.041127503 0.38703942 0.084652424 -0.3733616
0.07848698 0.060149193 0.39055264 -0.4893201 -0.15865225 -0.40508264 -0.07278103 0.21709979
-0.29734677 -0.17214632 0.3731218 -0.4569311 0.0038052201 -0.28604245 -0.32215726 -0.31519365
-0.23849499 -0.43849635 0.23979908 0.13532275 0.22068489 -0.119072616 0.30626154 0.3175723
0.2501439 0.016834617 0.34773254 -0.14767742 0.16924542 -0.17503607 -0.1292767 0.10403341
0.35508436 0.4133759 -0.37966514 0.30835223 0.44948655 -0.4358049 0.15420258 0.47076863
0.04660642 -0.24846101 -0.13885939 0.19432539 -0.42562956 0.21167713 -0.093360126 -0.48868746
-0.44911504 -0.31000316 0.13767833 -0.20267302 0.27032155 -0.48881966 0.054328978 0.36845273
0.26152545 0.24061722 -0.05174893 0.33761543 0.035595596 -0.25870347 -0.25488806 -0.10710049
-0.00042682886 -0.10318464 0.3638425 0.39520973 -0.13343287 0.21778071 0.41476345 -0.13481754
-0.11207408 -0.23989111 -0.27979165 0.20798826 0.2720887 -0.24652427 0.18456256 -0.28468496
-0.34869903 0.32656378 -0.26553994 -0.017105877 -0.11677766 0.13248539 -0.2899511 -0.22176462
0.12075359 -0.22909659 -0.35512114 0.47900796 0.30550748 -0.44905925 -0.013125241 -0.3852234
0.23539048 0.28265 -0.453497 0.3605795 0.42353034 0.399539 -0.122418106 0.112565994
-0.3653893 -0.10212505 0.36670333 0.2038461 0.1491251 0.21116012 0.18844712 -0.028740287

net.0.bias f4 [128]
00000000: 58ae 3dbe 90ff e03d 144d f23e 5091 88be
00000010: 42d9 c8be b6ee 9cbe 305b 41be 0cb9 a9be
00000020: a2f8 9c3e 842e 09be f8e2 43be c038 e33c
00000030: b853 a9be f87f 503e 2e72 dfbe 8a01 fdbe
00000040: a6f0 f03e d029 41be a0d4 62be b471 f6be
00000050: dc52 7dbe d044 e0bd c023 893d 8edf bb3e
00000060: 581b b3bd 3429 b23e 0e75 dabe 3cad a7be
00000070: 04dd 1d3e 9412 2abe 0236 87be 7c41 1ebe
00000080: d8db b23e 3627 f43e e083 e93d 1c4e 48be
00000090: 34fd f43e 2cbc c43e 8090 35bd 5063 023e
000000a0: 227f cc3e 1096 88bd 8099 2bbd 6ad9 893e
000000b0: 2638 a8be 7c0a 74be f066 25be 4e73 c83e
000000c0: 8418 673e f002 7abe 963c ecbe d0bd e1be
000000d0: 784b f63e 4018 59bc 82d5 f43e 3adb 8b3e
000000e0: c27c c33e 50d7 ff3d b4d5 c6be 181a e8be
000000f0: b8e1 753e e81f ac3e dc0d a1be 3c58 f33e
00000100: 84f8 2cbe 50a7 b83d c0f2 0abc d079 42be
00000110: 2800 e3be f836 cd3d 9482 65be 0057 803b
00000120: 60eb 953c 68c0 eabe b026 bbbe 5696 e63e
00000130: 78fb a73e 78e0 8fbd 9c20 c3be 4ce9 663e
00000140: 5e3a cd3e 5c67 f63e 881a 433e 8096 7e3e
00000150: 18e3 5bbe 18cd 3c3e 7038 f9be a0c5 9e3d
00000160: 862d e8be 408e ec3d a898 9f3d 6cd2 f7be
00000170: 62f7 e03e d433 dabe b07a e43d 0ea9 d83e
00000180: 86cb f0be 9809 e2bd 0813 993e 785f 9a3e
00000190: 88ab c53e 5e83 cf3e 006c 5e3a e883 cfbd
000001a0: 0008 4a3e f06c 55be 682b 87bd 9837 843e
000001b0: de6f d7be 6cda 82be 5075 6b3d 503c a73d
000001c0: 4457 2abe 06d2 a13e 56d0 a23e fcf2 acbe
000001d0: 8046 a1bb 3e47 a83e 621f bfbe 7aba bc3e
000001e0: e8e3 43be 7661 a83e 4c5e 16be fe4b d0be
000001f0: 9419 5bbe f0c6 7bbe b08f 79bd 7227 ef3e
-0.18523538 0.10986245 0.4732443 -0.26673365 -0.39228255 -0.30650872 -0.18882442 -0.33148992
0.30658442 -0.1339665 -0.1912955 0.027737021 -0.33071685 0.20361316 -0.436418 -0.49415237
0.470586 -0.18863606 -0.22151423 -0.48133624 -0.2473864 -0.10950625 0.06696272 0.36693996
-0.0874545 0.3479706 -0.4266743 -0.32749355 0.15416342 -0.1660865 -0.26408392 -0.15454668
0.34933352 0.47686166 0.11402106 -0.19561046 0.4784943 0.38424814 -0.04432726 0.12733197
0.39940745 -0.06669247 -0.041894436 0.26923686 -0.32855338 -0.23832124 -0.16152549 0.3915047
0.22567946 -0.24415183 -0.46139973 -0.44090128 0.48104453 -0.013250411 0.47819144 0.27315694
0.3818112 0.124922395 -0.38834918 -0.45332408 0.24011886 0.33618093 -0.31455886 0.47528255
-0.16891676 0.09016287 -0.008480728 -0.1899178 -0.44336057 0.1002025 -0.22413093 0.003916621
0.018300712 -0.4584992 -0.36552954 0.45036572 0.32809043 -0.07025236 -0.38110816 0.22549933
0.40083593 0.48125732 0.1905309 0.24862099 -0.21473348 0.18437612 -0.4867587 0.07752538
-0.45347232 0.115505695 0.07792789 -0.48402727 0.43938738 -0.42617667 0.11156213 0.42316478
-0.47030276 -0.11036986 0.29897332 0.30150962 0.3860743 0.40529913 0.0008484721 -0.10132581
0.19729614 -0.20842338 -0.06600076 0.25823665 -0.42077535 -0.25557268 0.057484925 0.081658006
-0.16634852 0.31605548 0.31799573 -0.33779132 -0.0049217343 0.32866853 -0.3732863 0.3686102
-0.19129908 0.32886857 -0.14684409 -0.40682977 -0.21396476 -0.24587607 -0.060928047 0.46709782

net.2.weight f4 [2, 128]
00000000: c8d1 a6bd b4c6 12bd 27df 62bd fe21 40bd
00000010: 4dec 623d a961 9dbd 71ce 59bd 22b8 e83c
00000020: bf59 76bd fdff dcbc e751 26bd 84a2 833d
00000030: 7060 efbc 560a 663d 01d1 8dbd f446 a13d
00000040: 89e6 aa3d 9216 8e3d eb42 af3c dfe7 b83c
00000050: 51ad ea3c f3e6 0d3c 90a0 3c3d 9da1 b6bc
00000060: 134c 43bd 1058 7b3c fd10 14bd d2c5 a3bc
00000070: e998 993d 669c f1bb 9995 35bc 7cbe b03d
00000080: 8c72 f9bc df5c 01bd dcc4 ecbc 63b5 50bc
00000090: e924 40bc 3e08 a4bd b59b 93bd fd0b 8fbd
000000a0: 022e 633d 30db 98bd 4ecb 22bd fec2 ab3d
000000b0: 87ef a83d ecd2 863d 078a 22bd 1037 98bc
000000c0: 81c3 8dbc ddd4 633d d539 ebbb 49c2 883d
000000d0: 4b09 223d 3ea5 a3bd b5c2 a13d 64a3 0c3d
000000e0: 88e9 813c 81aa b23d c592 a1bd f50b 6bba
000000f0: b408 fdbc 7864 e93c 0083 ffbb 2381 43bd
00000100: 0d82 5dbd 7e68 71bd b322 6a3d a49d 913d
00000110: 4dae 2dbc 14eb 483c 30a7 a2bd 7998 a6bd
00000120: 678c 6c3c 9573 2cbd 1c7d 90bb 655c 03bd
00000130: 7b5e 86bd bb13 873d b42a 81bd 571c 703d
00000140: c8a4 dabc b358 5fbd 107d 60bd 424c 48bd
00000150: d05b b53c 31b8 4ebd 0787 b2bc bae5 64bd
00000160: 8938 c4bc 7e84 59bd 940d 723c c656 553d
00000170: 3261 52bd 50dc 77bd 7cea 693c 97ad 23bd
00000180: e011 db3c e639 383a 966c acbc c861 af3d
00000190: 017f e1bc 3f4b b23d 4246 65bd 9fee f53c
000001a0: dbda 913d c2f0 b43d a9db 413d b8ac 403c
000001b0: a917 083d 1b53 463c af5b ad3d 56d0 913d
000001c0: e248 f33c d21e 9fbd 9072 313d 5961 1a3c
000001d0: 459d c13c d0d3 39bd d782 963d aa86 b43c
000001e0: 6081 88bd 5135 7dbd 0c9c 2f3d c72f afbd
000001f0: 3fa3 0e3d 45f2 dbbc ba8c fa3c 8ca5 4b3d
00000200: 87b4 10bc c174 98bd 25c7 8e3c 037f 813d
00000210: 94ff 973c 8a84 13bd 29fb a43d daf0 e0bc
00000220: 3fc6 863d 71f4 0cbd 1fd8 943d d6e4 6ebd
00000230: 0b29 873d 9fbb a13d 7c66 033a 1dee ab3d
00000240: 281e e03c 044b 4d3d 9a88 83bc f72a d5bc
00000250: 2f19 843d c9bc c43c 2e55 92bd d2c6 823d
00000260: 2be6 e2bb b752 9fbc 7031 82bd 9c84 303d
00000270: 52e3 cdbc ed78 373d 1457 6b3d 7af3 fabc
00000280: bc60 893d e6b8 4cbc f1fd 19bd c55a 81bd
00000290: 1035 593d 872d 4b3d b698 8dbd 6314 3bbc
000002a0: d91a 9dbd 78f3 1fbd b47b c93c e5aa 183d
000002b0: 605c 40bc 55f7 9f3d 3665 25bd a075 133d
000002c0: 9b0c ff3c c150 5bbd d18c 043d a9e2 4cbc
000002d0: e9d1 053d a628 223c b182 d5bc 4acd a33c
000002e0: dddc c1bc c9dd 3abd dac2 37bd 122d f1bc
000002f0: 3e16 a6bb 7f65 73bc 1c22 acbd 1cfc a03d
00000300: e732 93bd 1f51 263d 44c1 efbc 655b 4c3d
00000310: c086 b9bc 5c4a 30bd 0df7 b0bd 0221 b23d
00000320: 29d7 35bd 1146 86bd 0563 303d fd11 7abd
00000330: 37d2 893d a730 45bd de9e f23c 2c8b de3c
00000340: fbab a2bd f5ba 45bd b889 84bd ed63 67bb
00000350: e5bd 3fbd 92a0 af3d e0b1 433d d0d7 0dbd
00000360: 20f4 af3d 0fed 8ebd 552a 10bd 4c52 27bd
00000370: d254 9ebd e294 603d 5478 4a3d 8d09 603d
00000380: 9426 42bc 3b0f 603d 1b9e 26bd 4533 b83c
00000390: b7f1 323d d15f d23b c58e 4ebd 71be ffbc
000003a0: 9216 fbbc a99d 333d c6a7 503c 54c7 95bc
000003b0: a71c 1fbd 4041 a9bc dc28 9b3d 2129 abbd
000003c0: 5b23 8b3b 2c88 af3c 2d80 e93c 4fd5 debb
000003d0: 3439 a1bc 4d95 113b ab5f 763d 484f 09bd
000003e0: ef57 0dbd e374 fe3b c20c 9cbd ee10 81bd
000003f0: e79e d6ba 1876 a5bd 77ca 4cbd 45a8 7a3d
-0.08145481 -0.03583403 -0.055388596 -0.046907417 0.055401135 -0.07684643 -0.053175393 0.028408114
-0.060144182 -0.026977533 -0.040605452 0.06427482 -0.02922079 0.0561622 -0.0692463 0.07874861
0.08344752 0.06937899 0.021394214 0.022571502 0.028647097 0.00866102 0.04605156 -0.02229386
-0.047679972 0.01534082 -0.036149014 -0.019991789 0.074998684 -0.0073733805 -0.01108303 0.08630082
-0.030450128 -0.03158271 -0.028902464 -0.012738558 -0.01172755 -0.080093846 -0.07207433 -0.069847085
0.0554638 -0.07463682 -0.039744668 0.08386801 0.08248811 0.06583199 -0.039682414 -0.018580943
-0.017305138 0.055622924 -0.007178525 0.06677682 0.039559644 -0.07990502 0.078984655 0.03433551
0.015858427 0.08723927 -0.07889322 -0.00089663203 -0.030887939 0.02849029 -0.007797599 -0.047730576
-0.054079104 -0.058937542 0.057161998 0.07110146 -0.010600639 0.012263078 -0.07942045 -0.081345506
0.014437771 -0.042102415 -0.0044094454 -0.032070536 -0.065609895 0.0659556 -0.06306973 0.058620777
-0.026689902 -0.05452795 -0.05480677 -0.04890085 0.022138506 -0.050468627 -0.021792902 -0.055883147
-0.02395274 -0.05310487 0.014773745 0.052084707 -0.051362224 -0.06051284 0.014277097 -0.03996047
0.026741922 0.00070276705 -0.021047872 0.08563572 -0.02752638 0.08705758 -0.055975206 0.03002101
0.071218215 0.088349834 0.047328625 0.011759929 0.03322569 0.012104775 0.08464753 0.07119815
0.02969784 -0.077695504 0.043322146 0.009422624 0.023634562 -0.045368016 0.073491745 0.02203687
-0.06665301 -0.061818425 0.042873427 -0.08554035 0.034823652 -0.026848922 0.030584682 0.049718425
-0.008832104 -0.07444144 0.017428944 0.06323054 0.018554486 -0.03601507 0.080557175 -0.027458597
0.06580781 -0.034412805 0.07267784 -0.058323704 0.06599625 0.07897114 0.0005012525 0.08395026
0.02735813 0.05012037 -0.016056348 -0.026021464 0.06450116 0.024015801 -0.07145153 0.06385578
-0.006924411 -0.019448621 -0.06357086 0.043095216 -0.025132809 0.04479306 0.05745609 -0.030633677
0.06707904 -0.012495255 -0.037595693 -0.06316141 0.05302912 0.049603965 -0.06913893 -0.011418435
-0.076711364 -0.03905055 0.024595119 0.037272353 -0.011740774 0.07810847 -0.040379725 0.036000848
0.03113394 -0.05354381 0.032360855 -0.012505212 0.03267089 0.009897387 -0.026063295 0.01999535
-0.023664886 -0.045621667 -0.04486356 -0.029440437 -0.0050685694 -0.0148557415 -0.08404943 0.07860586
-0.07187443 0.040604707 -0.02926696 0.049891848 -0.022647262 -0.043039665 -0.08640871 0.08697702
-0.044394646 -0.06556333 0.043063182 -0.06105231 0.067295484 -0.0481421 0.02961677 0.027165972
-0.07942959 -0.048274 -0.0647158 -0.0035307363 -0.046811957 0.08575548 0.047777057 -0.034629643
0.08591485 -0.06978809 -0.03519662 -0.04084997 -0.07731022 0.054829486 0.04943116 0.05469661
-0.011850018 0.054702025 -0.040678125 0.022485385 0.04368755 0.0064201136 -0.050429124 -0.03121874
-0.03065041 0.04385153 0.012735313 -0.018283524 -0.038845684 -0.020660996 0.07576153 -0.08357454
0.004246158 0.021427236 0.028503502 -0.0068003307 -0.019680597 0.0022214234 0.06014983 -0.033522874
-0.034507688 0.007765399 -0.07619621 -0.06302057 -0.0016374261 -0.08079165 -0.049997773 0.06119563

net.2.bias f4 [2]
00000000: 2ad1 473c df8d 2bbd
0.012195865 -0.041883346
